model_no_gold.pt (torch, 274159 bytes, 6 tensors)

rnn.weight_ih_l0 f4 [256, 6]
0	0x3c04aeed	0.008098346
1	0x3d1ebe9d	0.038756
2	0xbd559e2a	-0.05215279
3	0xbd0c4510	-0.03424555
4	0xbce93f7d	-0.028472656
5	0x3cecd1ff	0.028908728
6	0x3b9499d4	0.0045349393
7	0x3d597c54	0.053097084
8	0xbc0297c6	-0.007970756
9	0x3cfb0948	0.030644074
10	0xbc9e25a6	-0.019305062
11	0xbba6f73e	-0.0050953915
12	0xbd91e7c9	-0.07124288
13	0xbd4b8b62	-0.049693473
14	0xbce3e488	-0.027818933
15	0xbbfcdf6b	-0.007717063
16	0x3c96e2a1	0.018418612
17	0x3ca43b79	0.02004789
18	0xbd3a0fa0	-0.045425057
19	0xbceff556	-0.02929179
20	0x3ca322dc	0.019914083
21	0x3d456b5b	0.048198085
22	0xbc837014	-0.016044654
23	0x3d30220d	0.043001223
24	0xbcc9fc3d	-0.02465641
25	0xbbbee552	-0.005825677
26	0x3d5c3ddf	0.053769942
27	0xbd94fe7f	-0.07275104
28	0xbd3db321	-0.04631341
29	0xbd1f563d	-0.038900603
30	0xbd1cd372	-0.038287587
31	0x3d49f81b	0.049308877
32	0xbd26df5f	-0.040740367
33	0xbd1d4e6d	-0.03840487
34	0xbd39f72d	-0.04540174
35	0xbd97dd7d	-0.074152924
36	0xbd4b4a47	-0.049631383
37	0x3d4219b5	0.047387797
38	0x3ccc8edf	0.02497047
39	0x3cbf870f	0.02337983
40	0xba26b7ff	-0.0006359815
41	0xbd2fc7dd	-0.042915214
42	0x3bc84480	0.0061116815
43	0xbd803988	-0.06260973
44	0xbd38b175	-0.04509111
45	0xbd170472	-0.036869474
46	0x3d16b0a2	0.036789544
47	0x3cf75ae3	0.030194705
48	0xbc9f1d8a	-0.019423265
49	0x3c561980	0.013067603
50	0x3d27cc72	0.04096646
51	0x3d974b92	0.07387461
52	0x3d174915	0.03693493
53	0x3cd17b1b	0.025571397
54	0x3d1438a7	0.03618684
55	0xbd00f54c	-0.031483933
56	0x3c2bd3b0	0.010487482
57	0xbd58fbb4	-0.052974418
58	0xbcf8e991	-0.03038481
59	0xbd113fd3	-0.03546126
60	0x3d29ef90	0.04148823
61	0x3d0d1630	0.034444988
62	0xbd147de0	-0.036252856
63	0x3d0f9142	0.035050638
64	0x3d23e4dd	0.040013183
65	0x3c3dbee2	0.011581155
66	0x3c83a0d0	0.016067892
67	0x3cb5f9fd	0.02221393
68	0x3d1a0651	0.03760368
69	0x3d9d30c0	0.07675314
70	0xbd3e5f97	-0.04647788
71	0xbbcafa07	-0.0061943564
72	0x3d18f168	0.037339598
73	0x3d805671	0.062664874
74	0x3d645028	0.055740505
75	0x3d8e5097	0.06948965
76	0x3ca1cff2	0.019752476
77	0xbd113e69	-0.03545991
78	0x3c6f009f	0.01458755
79	0xbd009399	-0.03139076
80	0xbd6b9aa3	-0.05752052
81	0x3d8efd86	0.069819495
82	0x3d6175be	0.05504393
83	0xbd40d9ac	-0.047082588
84	0x3cb1d4ac	0.021707855
85	0xbadcd016	-0.0016846682
86	0xbbeefd94	-0.0072934125
87	0xbc911e87	-0.017714752
88	0x3d02514f	0.031815823
89	0xbcc1d010	-0.023658782
90	0x3c84fd4e	0.016234066
91	0x3cb96c3d	0.02263462
92	0x3d2843fa	0.041080453
93	0x3c847c92	0.016172681
94	0xbd8f55c8	-0.06998783
95	0xbd59d5a2	-0.05318225
96	0x3d2e1df0	0.04250902
97	0x3cb1d47e	0.02170777
98	0xbd3e6b4d	-0.04648905
99	0xbcbb090c	-0.022831462
100	0x3d827bc8	0.06371266
101	0x3d70e65d	0.05881344
102	0xbd221ae7	-0.039576437
103	0xbc5dc1ed	-0.013535005
104	0xbd7278a8	-0.059197098
105	0xbc0bbf5d	-0.008529511
106	0xbd06e406	-0.032932304
107	0xbd72f0ee	-0.0593118
108	0xbbf81a16	-0.007571469
109	0x3bf17f01	0.0073698764
110	0xbcc6c6a0	-0.024264634
111	0x3d09370a	0.033499755
112	0xbd1f9c00	-0.038967133
113	0x3d574d1d	0.052563775
114	0x3d59108f	0.052994307
115	0xbd29dfbd	-0.04147314
116	0xbc678578	-0.0141309425
117	0x3c990d0d	0.01868298
118	0x3c82a827	0.015949322
119	0x3d0636ff	0.032767292
120	0x3d17b73c	0.03703998
121	0x3c2ef482	0.010678412
122	0xbcf23344	-0.029565461
123	0x3d2a621a	0.041597463
124	0xbd6e5099	-0.058182333
125	0xbcb56b8d	-0.02214601
126	0xbc494b71	-0.012286053
127	0xbccffbd6	-0.02538864
128	0xbcae42a6	-0.021272015
129	0xbd3fcaa7	-0.046824124
130	0xbc0ca4f1	-0.008584247
131	0x3c888a91	0.016667636
132	0xbd462e81	-0.048384193
133	0xbc557eec	-0.013030749
134	0x3d3a4d59	0.04548392
135	0xbc984767	-0.018588735
136	0xbba9c4d4	-0.0051809344
137	0xbcc33fce	-0.023834135
138	0x3ccbc5eb	0.024874648
139	0x3d3c504b	0.04597501
140	0x3d7324a4	0.059361115
141	0x3d5b23ae	0.053500824
142	0x3d72ec18	0.059307188
143	0x3c288aea	0.010287026
144	0xbd8a076f	-0.06739699
145	0xbd187a7a	-0.037226178
146	0x3d266d95	0.04063185
147	0xbc25ee45	-0.010127609
148	0xbd0ea10f	-0.034821566
149	0xbd8958bf	-0.0670638
150	0xbd9231c5	-0.07138399
151	0xbd793665	-0.06084289
152	0xbc6a26c0	-0.014291465
153	0x3ccf486c	0.025303088
154	0x3ce33c08	0.027738586
155	0xbd9ecb2c	-0.07753596
156	0x3d2b2758	0.041785568
157	0xbd3bc6e8	-0.04584399
158	0xbc4ab7d8	-0.012372933
159	0xbcade1a0	-0.02122575
160	0xbc080d78	-0.008303992
161	0xbc040715	-0.008058329
162	0xbd8dac3b	-0.06917616
163	0xbd8ba3e1	-0.06818367
164	0xbc5b311c	-0.013378408
165	0xbc3cc28a	-0.011520991
166	0xbd13f756	-0.03612455
167	0x3b1a037c	0.0023500612
168	0xbd6cdbf9	-0.05782697
169	0xbc098419	-0.008393311
170	0x3d57f04e	0.052719407
171	0xbcf7aa92	-0.030232701
172	0x3d53ea28	0.05173698
173	0x3c9be752	0.0190312
174	0xbd8b02d2	-0.06787647
175	0x3d093320	0.033496022
176	0xbc1d6fb0	-0.009609148
177	0xbd217ea5	-0.03942742
178	0x3d489941	0.04897428
179	0xbd88dd74	-0.06682864
180	0x3c963e42	0.018340234
181	0xbbed8861	-0.0072489236
182	0x3d32dba5	0.0436665
183	0x3cfb13bb	0.030649057
184	0x3cf932d4	0.030419745
185	0x3d147eb7	0.036253657
186	0xbb35bcd5	-0.002773096
187	0xbba5ab97	-0.0050558555
188	0xbd5009ed	-0.050790716
189	0x3d433ccb	0.0476654
190	0x3d5defe6	0.054183863
191	0x3d7cccb4	0.061718658
192	0xbd65f3ee	-0.056140833
193	0xbba82d33	-0.0051323413
194	0xbd36d398	-0.044635385
195	0xbd3e1a13	-0.046411585
196	0xbd1ce0c0	-0.038300276
197	0x3b30424e	0.002689499
198	0xbcdd243c	-0.026994817
199	0x3c2004bb	0.009766753
200	0x3bf6ddf2	0.007533782
201	0x3d5010e1	0.050797347
202	0xbd254828	-0.040352017
203	0xbcf51d2a	-0.029921133
204	0xbce13744	-0.027492173
205	0x3d3f1d2b	0.046658676
206	0xbca662e1	-0.020310821
207	0x3d84dbd2	0.0648724
208	0x3c8d711a	0.017265845
209	0x3c9bc864	0.019016452
210	0x3c29e6b6	0.010369947
211	0xbbede3d1	-0.007259824
212	0x3c0168fe	0.007898567
213	0x38f56b9a	0.00011702553
214	0xba34132a	-0.0006869311
215	0x3cb955c7	0.02262391
216	0xbd7ab1ac	-0.061204597
217	0xbd1d1533	-0.038350295
218	0x3d4e7a96	0.050409876
219	0xbd7223e0	-0.059116244
220	0xbb70fe90	-0.0036772825
221	0x3d425c31	0.0474512
222	0x3d0bc79a	0.0341259
223	0x3c85dd6c	0.016340934
224	0xbd53ef9a	-0.051742174
225	0x3d347b6e	0.044063024
226	0xbd0e89b1	-0.03479928
227	0x3b07398a	0.0020633661
228	0xbcd7989d	-0.026317889
229	0xbc724092	-0.014785903
230	0xbb300edd	-0.0026864328
231	0x3d39f975	0.045403916
232	0x3ac08601	0.0014688374
233	0x3d4a3652	0.04936821
234	0x3d482cee	0.048870973
235	0xbcd713ce	-0.02625456
236	0x3cf1dc90	0.029524118
237	0xbceb2690	-0.028704911
238	0xbc9efd1e	-0.019407805
239	0x3d1216ae	0.03566616
240	0x3d01278a	0.031531848
241	0x3d66391e	0.056206815
242	0xbc8cd3df	-0.017190872
243	0x3c332b39	0.010935598
244	0x3d1d126b	0.038347643
245	0xbd3d56f1	-0.046225492
246	0x3d071c28	0.032985836
247	0xbd90969e	-0.07059978
248	0xbb9258c3	-0.0044661476
249	0xbcb5c845	-0.022190223
250	0xbd31f49c	-0.04344617
251	0xbc5528f9	-0.013010257
252	0x3d28dd27	0.041226532
253	0xbcfdf187	-0.030998958
254	0xbd24062e	-0.040044956
255	0xbd00bfee	-0.03143304

rnn.weight_hh_l0 f4 [256, 256]
0	0xbcbc097e	-0.022953745
1	0x3cc4a089	0.02400233
2	0x3cf13aa8	0.029446915
3	0xba56da66	-0.0008195996
4	0x3d6e044b	0.058109563
5	0xbd3836bd	-0.044974077
6	0x3cb769d1	0.022389324
7	0x3d67b8cf	0.05657273
8	0xbabe9fa6	-0.0014543429
9	0x3d4e5cbc	0.050381407
10	0x3c0e55ae	0.00868742
11	0xbd1071c8	-0.03526476
12	0xbcedcce9	-0.029028373
13	0x3ce4466e	0.027865615
14	0xbcf87951	-0.030331286
15	0x3cb37dce	0.021910574
16	0x3d87385b	0.06602546
17	0x3c99f520	0.018793643
18	0xbb197cb9	-0.0023420288
19	0x3ca5a7ef	0.020221679
20	0xbcf60500	-0.030031681
21	0xbd6173f5	-0.055042226
22	0xbd420e20	-0.047376752
23	0xbd34a204	-0.044099823
24	0x3c565b6b	0.013083319
25	0x3c3c2945	0.011484449
26	0xbced69c7	-0.028981103
27	0xbd6e9380	-0.058246136
28	0x3d0a1e8e	0.033720545
29	0xbd2498f9	-0.04018495
30	0xbb769cbf	-0.003763005
31	0xbd3bdc62	-0.04586447
32	0xbd16ce45	-0.036817808
33	0x3ce75830	0.028240293
34	0xbd52458a	-0.05133585
35	0xbce58b98	-0.028020665
36	0x3d422e81	0.04740763
37	0xbce49f3c	-0.02790796
38	0xbcab18eb	-0.020885905
39	0xbc90ba74	-0.017667033
40	0x3cd96cbf	0.026541112
41	0xbd1b8de7	-0.037977125
42	0x3c255122	0.010090144
43	0x3d02acf2	0.031903215
44	0xbb16c242	-0.002300397
45	0x3c2ec6b6	0.010667494
46	0xbd38dbf9	-0.045131657
47	0x3d089806	0.033348106
48	0x3ccda9a8	0.025105312
49	0xbc1bec2d	-0.009516758
50	0xbd4e5204	-0.050371185
51	0x3cdc4726	0.026889395
52	0x3d39eca5	0.045391697
53	0xbba05b5f	-0.004893705
54	0x3d0e2da8	0.03471151
55	0x3cf8c3e7	0.030366851
56	0xbc923a11	-0.017849954
57	0x3b6b10d7	0.0035868192
58	0x3d92e981	0.071734436
59	0x3bdbe979	0.0067111817
60	0xbd382067	-0.044952776
61	0xbb2d5da0	-0.002645351
62	0x3d000478	0.03125426
63	0xbc5b3217	-0.013378642
64	0xbcbbbfb9	-0.022918569
65	0x3d597f0c	0.053099677
66	0x3d24a7d2	0.04019911
67	0xbbf13b01	-0.00736177
68	0x3b05149a	0.002030647
69	0xbaf13c20	-0.001840476
70	0x3c3340d9	0.010940754
71	0x3bc3264c	0.005955493
72	0xbd183655	-0.03716119
73	0x3c5c85e0	0.013459653
74	0xbaef617f	-0.0018263309
75	0x3c19a1e5	0.009376978
76	0xbcc7b62e	-0.024378862
77	0x3c8b6fa9	0.017021017
78	0xbd38e829	-0.04514328
79	0x3ccac44c	0.024751805
80	0x3d203463	0.03911246
81	0xbbdfbc4c	-0.0068278667
82	0xbd3d325c	-0.046190605
83	0x3b8acf11	0.00423611
84	0x3c2197b2	0.009862827
85	0xbd4aca8f	-0.04950958
86	0xbd3f291f	-0.046670076
87	0x3d6d32d7	0.057909813
88	0x3d4f9fad	0.050689388
89	0x3cdb1ceb	0.026747188
90	0x3d33b6c2	0.043875463
91	0x3ccd4941	0.025059344
92	0x3d2b3d21	0.041806344
93	0x3d2f89cb	0.04285602
94	0xbc29a192	-0.010353463
95	0xbbf1f2a3	-0.007383661
96	0x3d28a3fc	0.041172013
97	0x3a4cdda5	0.000781501
98	0xbd1c227e	-0.03811883
99	0xbd25e3b1	-0.040500347
100	0x3d209060	0.039200187
101	0x3d50c830	0.050972164
102	0x3d68fdef	0.056882795
103	0x3c7a1fc9	0.015266367
104	0x3d349139	0.044083808
105	0xbd598ecc	-0.053114697
106	0xbd3145aa	-0.043279327
107	0xbd64f96a	-0.055901922
108	0x3d44ffbf	0.04809546
109	0x3c05a264	0.008156393
110	0xbce6f5b8	-0.02819334
111	0x3ceb8504	0.02874995
112	0xbc8f93c9	-0.017526524
113	0xbd2b9d9a	-0.041898347
114	0x3cce80f8	0.025207981
115	0x3c9c52cc	0.01908245
116	0xbd248e76	-0.040174924
117	0xbd11dd3b	-0.035611372
118	0x3cd27faa	0.02569564
119	0x3d5a2f5b	0.053267818
120	0x3b5b9108	0.0033503193
121	0xbce88013	-0.028381383
122	0x3d0335a1	0.032033566
123	0x3c49a664	0.012307737
124	0xbd62ed29	-0.055401955
125	0xbd11f32d	-0.0356323
126	0x3c1c187c	0.009527322
127	0x3d0e63b8	0.034763068
128	0xbcaea251	-0.021317633
129	0x3ce8bd0d	0.028410459
130	0xbd2858d9	-0.041100357
131	0x3d822397	0.063544445
132	0x3d33ce0f	0.043897685
133	0x3c0d0dbc	0.008609232
134	0x3d04257c	0.03226231
135	0x3cd3ecc9	0.025869744
136	0xbd0fa08e	-0.035065226
137	0xb6e56890	-6.8369045e-06
138	0x3c730357	0.014832339
139	0xbc544fe4	-0.0129585005
140	0x3d820c16	0.063499615
141	0xbc7fbe02	-0.015609266
142	0xbd6d25eb	-0.05789749
143	0xbcf1bea5	-0.029509852
144	0xbd5af421	-0.053455476
145	0x3d6110fe	0.054947846
146	0xbcea39fa	-0.028592099
147	0xbd2f19e0	-0.042749286
148	0x390e27b1	0.00013556961
149	0xbd17339e	-0.03691446
150	0xbcd82dc4	-0.02638901
151	0x3c9821a5	0.01857073
152	0xbd33a26b	-0.043856066
153	0x3d02a790	0.03189808
154	0x3d3577d9	0.04430375
155	0x3be4e2ab	0.0069850287
156	0x3ce1f434	0.027582265
157	0xbd13c80c	-0.03607945
158	0x3d357661	0.044302348
159	0x3d79d670	0.06099552
160	0x3c682f93	0.014171499
161	0x3d84c918	0.06483668
162	0xbd6c383a	-0.05767081
163	0xbc74dfe0	-0.014945954
164	0x3c48e152	0.012260752
165	0xbd6dd3d6	-0.05806335
166	0x3ceb4858	0.02872102
167	0xbcabcb98	-0.020971105
168	0xbcc450df	-0.023964344
169	0xbd404972	-0.046945043
170	0x3cee5811	0.029094728
171	0xbd2f66e4	-0.042822734
172	0xbc4374c3	-0.011929694
173	0x3cee6a88	0.029103532
174	0x3d640392	0.055667467
175	0x3c9442dc	0.018098287
176	0xbc9d5073	-0.0192034
177	0xbcd61a04	-0.026135452
178	0x3d0d4bd5	0.034496147
179	0x3c6a4b27	0.014300144
180	0x3d794bf5	0.060863454
181	0x3cc50f2e	0.02405509
182	0x3d439b16	0.047755323
183	0xbd4cab31	-0.04996795
184	0x3d320ba1	0.04346812
185	0xbcf5ffe5	-0.030029247
186	0xbc8c388d	-0.01711681
187	0xbb09b204	-0.0021010647
188	0xbada264f	-0.0016643497
189	0x3c198c1d	0.0093717845
190	0x3d51c5ff	0.051214214
191	0xbd215157	-0.039384212
192	0x3c9ff5e4	0.01952643
193	0xbd36b7fa	-0.044609047
194	0x3c31e2b6	0.010857275
195	0x3d367b19	0.04455099
196	0x3d26ba7c	0.04070519
197	0x3d657622	0.056020863
198	0x3d2c99db	0.042138916
199	0xbbaab70c	-0.005209809
200	0x3c72bb51	0.0148151675
201	0xbd013f44	-0.031554475
202	0x3d51d81f	0.0512315
203	0x3d05206e	0.03250163
204	0xbd25bac0	-0.0404613
205	0x3d62b0c0	0.055344343
206	0x3a570ba7	0.00082033355
207	0xbb2719bb	-0.0025497514
208	0xbc379184	-0.011204127
209	0xbc43dd97	-0.011954687
210	0x3b3a4d62	0.0028427471
211	0xbccc428b	-0.024934074
212	0xbd708ec5	-0.058729906
213	0xbcdfb470	-0.027307719
214	0xbb7f3cc1	-0.0038946124
215	0x3d45f8d9	0.048333023
216	0x3d2e46c3	0.042547952
217	0xbd2796b7	-0.040915217
218	0xbb83fe7a	-0.0040281387
219	0xbc892adf	-0.016744075
220	0xbd034ac3	-0.03205372
221	0xbc513ca3	-0.012770805
222	0xbc999fec	-0.018753015
223	0x3d2f6bdf	0.042827483
224	0xbcf315ed	-0.029673541
225	0x3c884bea	0.016637761
226	0xbd006afd	-0.031352032
227	0xbcabc2fd	-0.020967001
228	0x3d5f4673	0.054510545
229	0xbcc329f7	-0.023823721
230	0x3b503123	0.003176757
231	0x3d918e32	0.071072
232	0x3cadba22	0.02120692
233	0xbce3f3f1	-0.027826281
234	0xbd2a347c	-0.04155396
235	0xbc74998d	-0.0149291875
236	0xbc9df522	-0.019281927
237	0x3cd5f9b2	0.02612004
238	0xbc80509f	-0.015663443
239	0x3d5619e2	0.052270778
240	0xbd1da6f5	-0.0384893
241	0xbc9e2af3	-0.01930759
242	0x3cb60537	0.022219284
243	0x3d3f3af4	0.04668708
244	0x3d6bfdd2	0.05761511
245	0x3c639d68	0.013892509
246	0x3be1e7b6	0.006894077
247	0xbccb645c	-0.024828129
248	0x3d11f378	0.03563258
249	0xbd346459	-0.04404101
250	0xbc84f862	-0.01623172
251	0xbd3210bb	-0.043472987
252	0xbd779253	-0.06044228
253	0x3d1b43d6	0.03790649
254	0x3bdf11c5	0.006807538
255	0x3d51ee18	0.051252455

rnn.bias_ih_l0 f4 [256]
0	0x3be53a6a	0.006995489
1	0xbc6626cf	-0.014047339
2	0x3d1db38d	0.03850131
3	0xbc127b78	-0.00894057
4	0xbd50df5a	-0.050994255
5	0x3aef035e	0.0018235256
6	0x3cb09ab6	0.021558147
7	0x3d7184e6	0.058964632
8	0xbc2d7fcc	-0.010589551
9	0x3cb3b20e	0.021935489
10	0xbd5d32d7	-0.054003563
11	0xbd5addba	-0.05343411
12	0x3d21195e	0.039330833
13	0x3d1009e7	0.035165694
14	0x3c9e37a5	0.019313643
15	0x3d7d556e	0.06184905
16	0x3cc65f3d	0.024215335
17	0xbcd8e37c	-0.02647566
18	0xbd66b911	-0.056328837
19	0xbbcf20be	-0.006321042
20	0x3d18e610	0.03732878
21	0x3b329861	0.002725147
22	0x3d501123	0.050797593
23	0xbd45ec92	-0.048321314
24	0x3d5bd8a0	0.053673387
25	0x3d2d2243	0.042269003
26	0xbd756dc8	-0.05991915
27	0x3cc2e5ed	0.023791278
28	0x3d02720f	0.031847056
29	0x3bf0ff6a	0.0073546665
30	0x3d21f099	0.039536092
31	0xbd1c9a6d	-0.03823321
32	0x3ce140c9	0.027496712
33	0xbcbb591b	-0.022869637
34	0x3ce26958	0.027638122
35	0xbd0a810b	-0.03381447
36	0x3d150c47	0.03638866
37	0x3d7ab567	0.061208155
38	0x3d001d46	0.031277917
39	0xbd43c3ec	-0.047794268
40	0x3d89767d	0.06712053
41	0x3d274a63	0.040842425
42	0xbd21b2db	-0.03947721
43	0xbd11329f	-0.035448667
44	0xbd46b184	-0.048509136
45	0xbc1fe1a2	-0.009758385
46	0xbc6c7410	-0.014431968
47	0x3c95153a	0.018198598
48	0x3cd3c67e	0.025851484
49	0xbcb421b1	-0.021988722
50	0xbd5b89e7	-0.05359831
51	0x3d69c3a2	0.057071336
52	0x3d6cd339	0.057818625
53	0xbcf3e906	-0.0297742
54	0xbc8a5283	-0.016885048
55	0x3cc35bf1	0.023847552
56	0xbd3097b2	-0.043113418
57	0x3bb91574	0.0056483094
58	0xbcc67300	-0.024224758
59	0x3d398cc7	0.04530027
60	0xbc897eb2	-0.016784046
61	0xbd6fe39c	-0.058566675
62	0x3c22cd05	0.009936576
63	0x3cc9c56f	0.024630276
64	0xbc027b79	-0.0079640085
65	0xbb6f9d9c	-0.0036562448
66	0xbc8c3462	-0.017114822
67	0x3c06f95d	0.008238164
68	0xbc6f3f3e	-0.01460248
69	0xbc57010e	-0.01312281
70	0x3d20f648	0.039297372
71	0xbd244bab	-0.040111225
72	0x3c8aa885	0.01692606
73	0x3cc17306	0.023614418
74	0x3c1c72c2	0.009548845
75	0xbc2e9ffb	-0.0106582595
76	0xbd43695d	-0.047707904
77	0x3d629846	0.055321
78	0xbd3ff453	-0.046863865
79	0x3ace054f	0.0015718135
80	0x3d4a9a55	0.04946359
81	0x3d222e5d	0.039594997
82	0xbd48333e	-0.048876993
83	0xbcc36a8a	-0.023854513
84	0x3d83fab1	0.064443
85	0xbc1dcf67	-0.009631968
86	0xbcac0730	-0.020999521
87	0xbd263d7e	-0.040585987
88	0xbcf8ed22	-0.030386511
89	0xbd55d331	-0.05220336
90	0xbd06dfdb	-0.03292833
91	0xbcb37ecf	-0.021911053
92	0xbc3ac16e	-0.011398656
93	0x3d604610	0.054754317
94	0xbd4bb2dc	-0.04973112
95	0xbd258c0b	-0.04041676
96	0xbd26f98c	-0.04076533
97	0x3d2010ce	0.039078526
98	0xbc8ac4c3	-0.016939526
99	0x3d325434	0.043537334
100	0x3b6d7e20	0.0036238506
101	0xbab878a0	-0.0014074035
102	0x3c916081	0.017746212
103	0xbd5201b4	-0.051271155
104	0x3c33243d	0.010933933
105	0x3cb53fe8	0.0221252
106	0xbc5423f0	-0.012948021
107	0x3a207b12	0.00061218545
108	0x3d09bc06	0.03362658
109	0x3d407749	0.04698876
110	0x3d47d1b4	0.048783973
111	0x3d3af86f	0.04564708
112	0x3c5f3d07	0.01362539
113	0xbcaceb93	-0.021108424
114	0x3ac0efba	0.0014719882
115	0x3d7b02b7	0.061281886
116	0x3d203931	0.039117042
117	0x3d151c9d	0.03640424
118	0x3c2cb3f2	0.010540949
119	0x3d87f70e	0.06638919
120	0xbd18b542	-0.037282236
121	0x3a4f3f44	0.00079058507
122	0x3cf314d4	0.029673018
123	0x3d1c5dfd	0.03817557
124	0x3b748082	0.0037308042
125	0x3d472c86	0.048626445
126	0xbd4f8026	-0.05065932
127	0x3d852733	0.06501617
128	0x3d1e3e00	0.038633347
129	0xbd71d2af	-0.059038814
130	0x3d326e07	0.04356196
131	0xbd0da833	-0.034584235
132	0xbd19aa61	-0.037516
133	0xbc57df33	-0.013175773
134	0xbca81936	-0.020519834
135	0x3c365e54	0.011130888
136	0x3d02d2df	0.031939384
137	0xbb62dd1e	-0.003461666
138	0x3cc86116	0.024460357
139	0xbd1d3b43	-0.038386595
140	0xbd2bb7b9	-0.04192326
141	0x3d50708f	0.050888594
142	0x3d76ae69	0.060224924
143	0x3c33f277	0.010983101
144	0xbd2a8eaf	-0.04163998
145	0xbcf342c5	-0.029694924
146	0xbd00e104	-0.03146459
147	0x3cc7ab83	0.024373775
148	0x3d32a49f	0.043614026
149	0x3d518f99	0.051162336
150	0xbc964517	-0.018343491
151	0x3d04245a	0.03226123
152	0x3d65ea76	0.056131802
153	0xbcad3c1a	-0.021146823
154	0x3d093fcd	0.03350811
155	0x3d2db735	0.042411048
156	0xbd46b6ff	-0.048514362
157	0x3d5991a9	0.053117428
158	0x3d3ac2c6	0.045595907
159	0x3c6338f5	0.01386856
160	0xbb9465ae	-0.0045287227
161	0xbd521472	-0.05128903
162	0xbcd29d1d	-0.025709683
163	0x3d76287a	0.060097195
164	0x3b8a12cb	0.004213666
165	0xbd7d827d	-0.06189202
166	0x3b7463b8	0.0037290882
167	0x3d3d9c63	0.04629172
168	0x3c979104	0.018501766
169	0x3d403a9b	0.04693089
170	0x3ca99a8d	0.020703578
171	0x3d196203	0.037446987
172	0x3d43a5ba	0.04776547
173	0xbd4a3113	-0.049363207
174	0x3cf3e722	0.029773299
175	0x3d8715fd	0.06595991
176	0x3cccf091	0.025017055
177	0x3cbaf18c	0.022820257
178	0x3d7526b5	0.059851367
179	0x3bdb1f72	0.006687098
180	0x3cb938e6	0.02261014
181	0x3cb4203a	0.021988023
182	0xbd3d26f1	-0.046179716
183	0xbca5b065	-0.020225713
184	0xbcca774c	-0.024715088
185	0x3d4208ad	0.047371555
186	0xbcfb2678	-0.030657992
187	0xbbdcd283	-0.006738962
188	0x3c9eb67f	0.01937413
189	0xbcb523bb	-0.022111764
190	0xbd0501a3	-0.032472264
191	0x3c3dbfde	0.011581389
192	0xbcba5bd4	-0.022748865
193	0x3d84c7de	0.06483434
194	0xbd205250	-0.039141
195	0xbc134ce2	-0.008990498
196	0xbce2015c	-0.027588539
197	0x3d639a92	0.05556733
198	0xbd37bffc	-0.044860825
199	0x3cea88ac	0.028629623
200	0x3cb44787	0.022006763
201	0xbd059d73	-0.03262086
202	0xbd596c61	-0.053081874
203	0xbca887dc	-0.020572595
204	0xbd05635f	-0.03256547
205	0x3b4fc169	0.0031700975
206	0xbcd50b8f	-0.026006488
207	0x3d542cbf	0.051800486
208	0xbc6dbaaf	-0.014509841
209	0x3d5ac241	0.05340791
210	0x3d05923b	0.03261016
211	0x3bb52853	0.0055284887
212	0x3cd1e240	0.02562058
213	0x3d234e8f	0.03986984
214	0x3d02c4fa	0.031926133
215	0x3d5495e4	0.05190076
216	0x3ce6506c	0.02811452
217	0xbcfbe2de	-0.030747827
218	0xbd587d71	-0.052854005
219	0xbc9ae126	-0.018906187
220	0x3ca74dbf	0.020422814
221	0xbc87a9fa	-0.016560543
222	0xbd109882	-0.035301693
223	0xbd068063	-0.032837283
224	0xbd5a4cb1	-0.053295795
225	0x3c377985	0.011198406
226	0xbd87a35f	-0.066229574
227	0xbd40f83e	-0.047111742
228	0x3b3d81d8	0.0028916504
229	0xbd3ae6ad	-0.045630146
230	0xbbb939fa	-0.0056526633
231	0xbb17fb9e	-0.0023190747
232	0xbbfb5658	-0.007670205
233	0x3d4733ee	0.04863351
234	0x3d0cab32	0.034342952
235	0x3d1070f9	0.03526399
236	0x3cddead5	0.027089516
237	0x3c89a3be	0.016801711
238	0xbd186105	-0.0372019
239	0x3cfa21d3	0.030533707
240	0xbcf08320	-0.0293594
241	0xbcffae22	-0.031210963
242	0xbcd04668	-0.025424197
243	0x3c3c11d1	0.011478857
244	0xbd21a8cd	-0.03946762
245	0x3caf3843	0.021389132
246	0x3d42b0d4	0.047531918
247	0xbd10de4d	-0.035368253
248	0xbd018954	-0.031625107
249	0xbcc38cb2	-0.0238708
250	0x3af725f3	0.0018855914
251	0x3d6f6cba	0.0584533
252	0xbc55dc42	-0.013053002
253	0xbc8cb151	-0.017174395
254	0x3cba3718	0.022731349
255	0x3a13970b	0.0005630112

rnn.bias_hh_l0 f4 [256]
0	0xbd370b7a	-0.04468868
1	0x3cd1cef4	0.025611378
2	0x3c7f6383	0.01558769
3	0xbcc046e1	-0.023471298
4	0xbafc7991	-0.0019262304
5	0xbaa16bb5	-0.0012315424
6	0xbd6d5327	-0.05794063
7	0x3b27f7cc	0.0025629876
8	0x3d2afd6c	0.04174559
9	0xbcac6727	-0.02104528
10	0xbcbc31d1	-0.022972973
11	0x3d4c0a54	0.049814537
12	0x3c25aaa7	0.0101114875
13	0x3d853e26	0.065059945
14	0x3d4721e6	0.048616312
15	0x3d57f7d4	0.05272658
16	0xbcf81488	-0.030283228
17	0xbc9ead57	-0.019369764
18	0xbca8e231	-0.020615669
19	0xbca34432	-0.019929979
20	0xbd402589	-0.046910796
21	0xbd52b783	-0.05144454
22	0x3d6e0271	0.058107797
23	0x3c841688	0.016124025
24	0x3d01010b	0.031495135
25	0x3d52ca8b	0.05146269
26	0xbc9d7d17	-0.019224687
27	0xbcb7c361	-0.022432031
28	0xbd58e39b	-0.052951436
29	0xbd031b3c	-0.032008395
30	0x3d5842ee	0.052798204
31	0xbca5a474	-0.020220019
32	0xbce8ac16	-0.02840237
33	0x3cf1030e	0.029420402
34	0x3d1eac0a	0.038738288
35	0x3ce389ce	0.027775671
36	0x3cb8f62a	0.022578318
37	0x3d2c7187	0.042100456
38	0x3ca5b952	0.02022997
39	0xbc98ecb4	-0.018667556
40	0xbd447a76	-0.04796835
41	0xbc5c050a	-0.013428936
42	0x3d46e170	0.048554838
43	0x3d1d7371	0.03844017
44	0xbc921236	-0.01783095
45	0x3c8c34a0	0.017114937
46	0xbb7d37d7	-0.003863802
47	0x3d4fde39	0.050749037
48	0xbd543eb8	-0.051817626
49	0x3c3cb355	0.011517365
50	0x3ced2a7c	0.028950922
51	0xbd2c381b	-0.042045694
52	0x3d234465	0.039860148
53	0x3c9f2eaa	0.01943143
54	0x3d6ae7fb	0.05735014
55	0xbd393059	-0.045212124
56	0x3c8d41d5	0.017243305
57	0x3d1eab42	0.038737543
58	0x3c3982d0	0.011322692
59	0x3d4715ff	0.04860496
60	0x3d42bf2c	0.047545597
61	0x3cc668ac	0.024219833
62	0x3cc9b833	0.024623966
63	0x3bea20ce	0.007145024
64	0xbd2226f1	-0.03958792
65	0x3d6342c5	0.0554836
66	0x3d1daeb5	0.03849669
67	0xbd30efdf	-0.04319751
68	0x3d2c7782	0.04210616
69	0x3d298d5e	0.041394584
70	0x3d5d9377	0.05409571
71	0xbb3cdcbf	-0.0028818098
72	0x3d170baf	0.036876377
73	0x3c1cfee1	0.009582252
74	0xbd29e909	-0.041482005
75	0x3d1c1af3	0.03811164
76	0x3c2d249f	0.010567813
77	0xbd233551	-0.03984577
78	0xbcbf80fe	-0.023376938
79	0x3d55514a	0.052079476
80	0x3d0ecd95	0.034864027
81	0xbd6a3893	-0.05718286
82	0x3a476ef5	0.00076077814
83	0xbd5e5dca	-0.054288663
84	0xbcea0f17	-0.028571649
85	0x3d85a979	0.06526465
86	0xbd233de3	-0.03985394
87	0x3d46c5a2	0.04852832
88	0x3c18cce0	0.00932619
89	0xbd17b5df	-0.03703868
90	0xbd600783	-0.054694664
91	0xbb3ccc7e	-0.002880841
92	0x3c63c2f0	0.013901457
93	0xbc4ec8f2	-0.012621151
94	0x3d063b74	0.032771543
95	0x3d2026c5	0.039099474
96	0x3c1e9f04	0.009681467
97	0xbd180474	-0.03711362
98	0xbc5d9efd	-0.013526675
99	0xbcd1eb70	-0.02562496
100	0xbc117180	-0.008877158
101	0xbae27f74	-0.0017280416
102	0x3d8f5d0e	0.07000171
103	0x3d40e219	0.047090624
104	0x3d6d53c1	0.057941202
105	0x3d20d738	0.03926775
106	0x3d863640	0.06553316
107	0xbd052d70	-0.032514036
108	0x3d4c4b5a	0.04987655
109	0xbd3bfa86	-0.045893215
110	0xbcc8f3eb	-0.024530372
111	0xbc0b8aa3	-0.00851694
112	0xbb2f9aae	-0.0026795077
113	0x3b62934e	0.0034572664
114	0x3d04b588	0.032399684
115	0x3d56b9e3	0.05242337
116	0xbd2fd0da	-0.042923786
117	0x3ca32886	0.019916784
118	0xbd2e27a4	-0.042518273
119	0x3bf3f58d	0.0074450434
120	0xbcf55159	-0.029946016
121	0xbc8579a5	-0.016293356
122	0x3cab8911	0.020939382
123	0x3d72c5f9	0.059270833
124	0xbd18cba0	-0.037303567
125	0x3d78b9f6	0.06072422
126	0x3caf0165	0.02136297
127	0x3c2fc964	0.010729168
128	0x3cc69bdb	0.02424424
129	0x3d135f14	0.035979345
130	0xbcb1593f	-0.021649001
131	0xbc10c1ed	-0.008835298
132	0x3cd63d19	0.02615218
133	0xbbaa7839	-0.00520232
134	0xbcf30ca5	-0.029669115
135	0x3bc442d1	0.0059894104
136	0xbd3ad2a6	-0.045611046
137	0x3d88d8df	0.0668199
138	0x3bbc2aed	0.005742422
139	0x3d8ffe29	0.07030899
140	0xbd2eacfd	-0.042645443
141	0x3c706ada	0.014673913
142	0x3c46376a	0.012098173
143	0xbd156420	-0.03647244
144	0x3b992d21	0.0046745692
145	0x3c9ea070	0.019363612
146	0x3d5c6351	0.053805653
147	0xbaaab030	-0.0013022479
148	0x3c641988	0.013922103
149	0x3d7d70a6	0.061875008
150	0xbcf4230f	-0.029801873
151	0xbc9d677f	-0.01921439
152	0x3c82afc1	0.015952947
153	0xbd43268a	-0.047644176
154	0xbcf5bf47	-0.029998435
155	0xbd154662	-0.036444075
156	0x3d8bdbca	0.06829031
157	0xbce0444f	-0.027376322
158	0x3cfb0f7d	0.030647034
159	0xbd5678c0	-0.05236125
160	0x3cb131f8	0.021630272
161	0xbcc950ee	-0.024574723
162	0xbd015bf9	-0.031581853
163	0x3d53dc3e	0.05172371
164	0xbd5c24f3	-0.053746175
165	0xbd59157f	-0.052999016
166	0xbd49b7b2	-0.04924745
167	0x3d3c9f63	0.04605044
168	0xbc4ab7fe	-0.012372969
169	0x3d46c68f	0.048529204
170	0xbd040ba4	-0.032237664
171	0xbd13523c	-0.035967097
172	0x3d2fd038	0.042923182
173	0xbd442a47	-0.04789188
174	0x3d338e9a	0.043837167
175	0xbce8a0bf	-0.028396962
176	0xbd059921	-0.03261674
177	0x3a68d1cc	0.000888136
178	0x3d5f0309	0.054446254
179	0x3d67520a	0.056474723
180	0x3d093102	0.033494003
181	0x3cecdb7f	0.028913258
182	0xbd2f1480	-0.04274416
183	0xbd3e62a2	-0.046480782
184	0x3d6f6146	0.058442377
185	0xba981864	-0.0011603949
186	0xbd09fa19	-0.033685777
187	0x3d2715a6	0.04079213
188	0xbcc66801	-0.024219515
189	0x3d7e3a26	0.062067173
190	0x3d59e011	0.053192202
191	0xbcc4b78b	-0.024013301
192	0xbcdbab5f	-0.026815115
193	0x3ae0f732	0.0017163514
194	0xbd111936	-0.035424434
195	0xbd19e9de	-0.03757655
196	0x3c288139	0.010284715
197	0x3d0562b7	0.032564845
198	0xbd228785	-0.039680023
199	0x3d59c395	0.053165037
200	0x3d4591f5	0.0482349
201	0x3d1fb8bf	0.038994547
202	0xbbda035c	-0.0066532325
203	0xbd122989	-0.035684142
204	0xbc8784df	-0.01654285
205	0x3d49eb44	0.049296632
206	0xbcf8faa4	-0.030392952
207	0x3cf34cd5	0.029699722
208	0x3af3ce43	0.00186009
209	0x3d61b0b1	0.055100147
210	0x3d277c91	0.04089028
211	0x3c649767	0.013952113
212	0x3d5e3cd7	0.05425724
213	0x3d601475	0.05470701
214	0x39b995e5	0.0003539763
215	0xbc6725c8	-0.014108129
216	0xbd12081f	-0.035652276
217	0xbc9390bb	-0.018013349
218	0xbc888615	-0.016665498
219	0xbb0aee55	-0.0021199186
220	0xbd2915da	-0.041280605
221	0x3c6a9ecf	0.0143200895
222	0xbcd92a0f	-0.026509313
223	0xbc14893d	-0.009065923
224	0x3d8a562d	0.06754718
225	0xbd56f857	-0.05248293
226	0xbcbe9440	-0.02326405
227	0xbd22e791	-0.03977162
228	0x3d5c2b08	0.053751975
229	0x3d0e08ed	0.03467648
230	0x3b80e9c7	0.0039341184
231	0x3d180d33	0.037121963
232	0xbd49c506	-0.04926016
233	0xbbb6a662	-0.0055740336
234	0x3c703ef6	0.014663449
235	0xbd396010	-0.045257628
236	0xbbf922fb	-0.007603047
237	0x3d847225	0.06467084
238	0x3d4b1b9d	0.04958688
239	0x3c2f12c5	0.010685627
240	0x3d8019e9	0.06254942
241	0xbcfe7183	-0.031059986
242	0x3d2a4f5e	0.041579597
243	0xbbed1535	-0.007235194
244	0x3ca71556	0.020395916
245	0xbbcd0d7f	-0.0062577124
246	0x3cfde7e6	0.030994367
247	0xbd094dc4	-0.03352143
248	0x3d24eda1	0.040265683
249	0xbc659d9b	-0.014014627
250	0x3cee18fc	0.029064648
251	0x3cd2b914	0.025723018
252	0x3d115be7	0.035488036
253	0x3d0f99ce	0.03505879
254	0xbd2f2f4b	-0.04276971
255	0xbc9f0a1a	-0.019413996

out.weight f4 [2, 256]
0	0x3c9ba8fb	0.019001475
1	0x3c92635a	0.01786964
2	0x3cdf3eb0	0.027251571
3	0x3d4b985b	0.049705844
4	0x3d8956a3	0.06705978
5	0x3933ab66	0.00017134621
6	0xbc49dcb3	-0.012320685
7	0x3ca95851	0.020671995
8	0xbd0c44c5	-0.03424527
9	0xbd3e4c5b	-0.046459537
10	0xbd36c8b5	-0.044625003
11	0xbc9af89b	-0.018917372
12	0xbd229534	-0.039693072
13	0x3ce9bf78	0.028533682
14	0xbd4957a8	-0.04915586
15	0xbc15d35d	-0.009144631
16	0xbd73195f	-0.059350368
17	0x3badf646	0.005308899
18	0xbd170e8f	-0.03687912
19	0xbd590c3b	-0.05299018
20	0xbd208ab4	-0.039194778
21	0xbc08e5e1	-0.008355589
22	0xbbab927f	-0.0052359696
23	0x3c849702	0.016185287
24	0x3d5a328f	0.053270873
25	0x3cd869d7	0.026417656
26	0xbc7ca7bb	-0.015420849
27	0x3d6a2fbc	0.05717443
28	0xbd13988c	-0.036034152
29	0x3d8a3d28	0.06749946
30	0x3d011285	0.031511802
31	0xbd3b0096	-0.045654856
32	0x3cf845bf	0.030306695
33	0xbd4a97fd	-0.049461354
34	0xbd39adf0	-0.045331895
35	0x3b51cac1	0.003201172
36	0x3d43e5b7	0.047826495
37	0xbd858049	-0.06518609
38	0x3d646967	0.055764582
39	0xbd35c788	-0.04437974
40	0xbd89c79e	-0.06727527
41	0x3d2a7a14	0.04162033
42	0x3caea63c	0.021319501
43	0xbab53157	-0.0013823909
44	0x3d0c89ec	0.03431122
45	0x3c9ad106	0.018898498
46	0x3c16408b	0.009170662
47	0x3c3e0b29	0.0115993405
48	0xbbac5d66	-0.0052601574
49	0x3d910b3b	0.0708222
50	0x3d44da8b	0.04805998
51	0xbd7bca16	-0.06147202
52	0xbd16b1cb	-0.03679065
53	0xbd781af2	-0.060572572
54	0x3ca5b8c6	0.020229708
55	0x3d8ca4f1	0.068673976
56	0xbd8e8462	-0.06958844
57	0xbd5a0bea	-0.05323402
58	0xbcc25d69	-0.023726182
59	0xbd931e45	-0.07183508
60	0xbd05c3bb	-0.032657366
61	0x3d2ef0cc	0.04271011
62	0x3d3b068f	0.04566055
63	0xbcc1c31a	-0.023652602
64	0xbd859d19	-0.065241046
65	0xbd5f2964	-0.054482833
66	0x3c2e9445	0.010655467
67	0x3d3f7716	0.04674443
68	0x3cff920c	0.03119757
69	0xbbe04a3e	-0.006844788
70	0x3d2a80e0	0.04162681
71	0xbd807e9c	-0.06274149
72	0x3d78af9e	0.060714357
73	0x3b0e1de6	0.0021685301
74	0xbd6a5c86	-0.057217143
75	0x3cac90bb	0.021065107
76	0xbcc9ea52	-0.024647865
77	0x3d89ef78	0.06735128
78	0xbd2db8cd	-0.042412568
79	0xbcd2342d	-0.025659645
80	0x3d4998e8	0.04921809
81	0x3d226160	0.039643645
82	0x3ce1c1c3	0.027558213
83	0x3c347aef	0.011015638
84	0x3c03dde9	0.008048513
85	0xbd684c33	-0.056713294
86	0x3caa0b7b	0.020757427
87	0x3d744d7e	0.059644215
88	0x3d4ed70f	0.050498065
89	0xbcfda93a	-0.030964483
90	0x3d25a1f4	0.040437654
91	0xbc5f1c21	-0.013617546
92	0x3c898320	0.016786158
93	0xbb8c7d17	-0.004287373
94	0xbd7d8e19	-0.061903093
95	0x3cea95cb	0.02863588
96	0xbd1a9ea4	-0.037748948
97	0x3bcc68ef	0.006238095
98	0xbb000b2c	-0.001953791
99	0xbd93131f	-0.071813814
100	0xbd10690b	-0.035256427
101	0x3d900d95	0.070338406
102	0x3c064ce8	0.008197047
103	0xbd7e5d4e	-0.0621007
104	0x3d10f47d	0.035389412
105	0xbd13eb1b	-0.036112886
106	0x3d93d392	0.07218088
107	0xbc9cfcc7	-0.019163502
108	0x3ce4a473	0.027910447
109	0xbd85543b	-0.06510206
110	0xbd5db075	-0.05412336
111	0xbd7653e7	-0.06013861
112	0xbc84fdbd	-0.016234273
113	0xbb41c976	-0.0029569543
114	0xbb62d369	-0.0034610874
115	0x3d111b0e	0.035426192
116	0x3cf16f2d	0.029471958
117	0xbca449cf	-0.020054726
118	0x3bbe341d	0.005804552
119	0xbc83e7b7	-0.016101701
120	0xbd4aad44	-0.049481645
121	0x3d6f53fc	0.058429703
122	0xbccc01da	-0.024903227
123	0x3cd15980	0.025555372
124	0x3cef0abf	0.029179929
125	0xbd1278bf	-0.035759684
126	0x3d672415	0.056430895
127	0x3d0acd7c	0.03388737
128	0x3d884829	0.066543885
129	0xb82ba6d8	-4.0924962e-05
130	0xbc424e9e	-0.011859564
131	0xbd00b00b	-0.031417888
132	0xbd70856c	-0.05872099
133	0xbd5b2e67	-0.05351105
134	0xbc259fdb	-0.010108913
135	0x3ab1cdba	0.001356534
136	0xbcc0db45	-0.023542056
137	0x3d6e776c	0.05821936
138	0xbc4a50ce	-0.012348367
139	0xbd0acd38	-0.033887118
140	0x3d1bb25e	0.0380119
141	0xbcf6781d	-0.030086571
142	0x3cdcbdd0	0.026945978
143	0x3c46c7e7	0.012132621
144	0x3d1d371c	0.038382635
145	0x3d8b1e5c	0.067929
146	0x396ddf7d	0.00022685337
147	0xbd573432	-0.05254001
148	0x3d049220	0.03236592
149	0xbd280861	-0.041023616
150	0xbd2e39a8	-0.042535454
151	0x3d69b772	0.057059713
152	0xbd81176c	-0.063032955
153	0x3cfbcf61	0.030738534
154	0x3d7da6a3	0.061926495
155	0xbd4a4deb	-0.049390715
156	0xbcf2d2ba	-0.029641498
157	0x3d9170c9	0.0710159
158	0xbd4e8288	-0.050417453
159	0x3cd5bca9	0.026090937
160	0x3cdb9e68	0.026808932
161	0x3d19c1ac	0.037538216
162	0x3c1f6242	0.009728016
163	0xbcecdef0	-0.028914899
164	0xbd807176	-0.06271641
165	0x3d192bbb	0.03739522
166	0x3b68a04e	0.003549594
167	0x3c7e1771	0.015508519
168	0x3cc34425	0.023836205
169	0x3d5cbd1e	0.053891294
170	0x3c98cf72	0.018653605
171	0x3d4ad761	0.049521808
172	0x3cb3a868	0.021930888
173	0xbd0e01c8	-0.034669667
174	0x3b18572d	0.002324532
175	0xbc4f0e8a	-0.012637744
176	0xbca9e33d	-0.020738238
177	0xbc252dab	-0.010081689
178	0xbc552b26	-0.013010776
179	0xbb47cf11	-0.0030488411
180	0xbd4bba8e	-0.04973846
181	0xbd714270	-0.05890125
182	0xbc9cecd3	-0.019155895
183	0x3d0289c9	0.031869683
184	0xbd1c8d76	-0.038220845
185	0xbcd7614f	-0.026291518
186	0x3bded500	0.006800294
187	0x3d5cda44	0.05391909
188	0x3d474d65	0.048657794
189	0x3c93832f	0.01800689
190	0x3d437eeb	0.04772846
191	0xb88dc304	-6.7597284e-05
192	0xbbeaf5a6	-0.007170397
193	0xbcbf9b38	-0.023389444
194	0x3d5dc232	0.054140277
195	0x3cb6a027	0.022293163
196	0x3bd7c438	0.0065846704
197	0x3d7c6110	0.061616004
198	0xbc4d55f6	-0.012532702
199	0x3d0dda64	0.0346321
200	0x3d1d4296	0.03839358
201	0xbc67a30c	-0.0141379945
202	0x3d449e7c	0.048002705
203	0xbcc8a89a	-0.024494458
204	0xbd8a5d49	-0.06756074
205	0xbd1d97f3	-0.03847499
206	0x3d07bc86	0.033138774
207	0x3d34a0f0	0.044098794
208	0xbca1c5bb	-0.019747606
209	0xbc4127da	-0.0117892865
210	0x3d5bd20d	0.053667117
211	0xbca8dbfe	-0.020612713
212	0x3cae5023	0.021278447
213	0xbc725560	-0.014790863
214	0xbd566365	-0.052340884
215	0xbcb171f6	-0.021660786
216	0x3d240e76	0.040052854
217	0x3c2a2bfb	0.010386462
218	0x3beb649c	0.0071836244
219	0xbca6e4eb	-0.020372828
220	0x3c4b73d7	0.012417755
221	0x3d9118f0	0.070848346
222	0xbcb6b09a	-0.022301007
223	0xbd1a3798	-0.037650675
224	0xbcf09d47	-0.02937187
225	0xbc09b3ca	-0.008404681
226	0x3d19eb53	0.03757794
227	0x3c7a8096	0.015289446
228	0xbd86b674	-0.06577769
229	0xbd34e7a1	-0.04416621
230	0xbd7649cb	-0.06012897
231	0x3b0f0efe	0.0021829004
232	0x3d12e9ef	0.035867628
233	0x3d520202	0.051271446
234	0xbcb8c8ce	-0.022556689
235	0x3c0ae36d	0.008477074
236	0x3c55d69a	0.013051653
237	0xbd8c6570	-0.06855285
238	0x3d881f1c	0.06646559
239	0x3d3f2d1b	0.046673875
240	0xbd56384e	-0.05229979
241	0x3d5aafb1	0.05339021
242	0x3d211fe4	0.039337054
243	0xbd321fd3	-0.04348738
244	0x3d21e8ab	0.03952853
245	0xbd7f4180	-0.062318325
246	0x3cfd9ea9	0.030959444
247	0xbb1ff7b8	-0.0024409126
248	0xbc765042	-0.015033783
249	0x3c96c246	0.018403184
250	0x3d2fca90	0.042917788
251	0xbd5f694d	-0.054543782
252	0x3d456717	0.048194017
253	0xbc0a0da8	-0.0084261075
254	0x3d3f33fe	0.046680443
255	0x3d8ee2b1	0.06976832

out.bias f4 [2]
0	0x3d1fd4e0	0.039021373
1	0x3d79c80e	0.060981803
