model_all_feat.pt (torch, 275183 bytes, 6 tensors)

rnn.weight_ih_l0 f4 [256, 7]
0	0xbca6e901	-0.020374777
1	0x3cb99e0e	0.022658374
2	0xbd84334d	-0.06455097
3	0xbd4d5819	-0.050132845
4	0xbd0ca4d8	-0.034336895
5	0x3be4951e	0.006975784
6	0xbca100a0	-0.019653618
7	0x3d8d7b8c	0.0690833
8	0x3ac8180f	0.0015265959
9	0x3c6f921a	0.014622236
10	0xbca0b5ff	-0.019618033
11	0xbc09caa6	-0.008410132
12	0xbd822993	-0.06355586
13	0xbd1faa0d	-0.038980532
14	0xbcdc0165	-0.026856134
15	0x3bb9ced9	0.00567041
16	0x3d19f579	0.037587617
17	0x3d2c4d41	0.042065863
18	0xbd00f49d	-0.03148328
19	0xbc4c381a	-0.0124645475
20	0x3d67b383	0.05656768
21	0x3d2d2abf	0.042277094
22	0xbc92eca2	-0.017935101
23	0x3d6aeedb	0.057356697
24	0xbc161307	-0.00915981
25	0x3bae7cb5	0.005324925
26	0x3d8cdcd7	0.06878059
27	0xbd7767bf	-0.060401674
28	0xbd0367a0	-0.032081246
29	0xbc1c8302	-0.009552719
30	0xbc6294e7	-0.013829446
31	0x3d68b533	0.05681343
32	0xbd0832de	-0.033251636
33	0xbcb8442b	-0.022493443
34	0xbd1020c6	-0.035187505
35	0xbd2f5a45	-0.042810697
36	0xbcf1ff44	-0.029540665
37	0x3d826208	0.06366354
38	0x3cdd80c3	0.027038937
39	0x3d2da24c	0.042391106
40	0x3c47f83a	0.012205178
41	0xbc3871ef	-0.011257633
42	0x3c97da37	0.01853667
43	0xbd59ff94	-0.053222254
44	0xbd17d981	-0.037072662
45	0xbd08db5a	-0.033412315
46	0x3d3b0adc	0.045664653
47	0x3d3a24fa	0.04544542
48	0xbc8cee42	-0.017203454
49	0x3c90c851	0.017673643
50	0x3d4c8555	0.049931843
51	0x3d93c2df	0.07214903
52	0x3ce48aaa	0.027898151
53	0x3c9f79cc	0.019467257
54	0x3d44ea2a	0.04807488
55	0xbcc46bb8	-0.023977146
56	0xbc503772	-0.012708532
57	0xbd6ce9cf	-0.057840165
58	0xbd4e04b2	-0.050297447
59	0xbd0611b4	-0.032731727
60	0x3c996846	0.01872648
61	0x3c8be3b5	0.017076353
62	0xbd6379ea	-0.05553619
63	0x3d37ebd7	0.04490265
64	0x3d3644ad	0.044499088
65	0xba9021e2	-0.0010996426
66	0x3ba00178	0.0048829876
67	0x3cc2c710	0.023776561
68	0x3d344480	0.04401064
69	0x3da1a6b0	0.07893121
70	0xbd2f50d9	-0.04280171
71	0xbc658cd2	-0.014010625
72	0x3d15d693	0.036581587
73	0x3d5af2e7	0.053454306
74	0x3d91d182	0.071200386
75	0x3d8fdb39	0.07024235
76	0x3d46eb36	0.04856416
77	0xbda28f1a	-0.07937451
78	0xbb95ff4d	-0.0045775534
79	0xbd4e5944	-0.0503781
80	0xbd6762a8	-0.05649057
81	0x3d349852	0.044090576
82	0x3d1a37b6	0.037650786
83	0xbdaa4e53	-0.083157204
84	0x3cb82cd0	0.022482306
85	0xbc310669	-0.010804751
86	0xbcc0ded8	-0.02354376
87	0xbce01b39	-0.02735673
88	0x3c7cc001	0.015426637
89	0xbd590fde	-0.052993648
90	0x3bb329e3	0.00546764
91	0x3c890efc	0.016730778
92	0x3d12c9dd	0.035837043
93	0x3c53270d	0.012887728
94	0xbd87006c	-0.06591877
95	0xbd4864ca	-0.048924245
96	0x3cd73385	0.026269684
97	0xbad75b57	-0.001643042
98	0xbd96348d	-0.07334242
99	0xbd35b158	-0.04435858
100	0x3d5423b2	0.051791854
101	0x3d26abe2	0.040691264
102	0xbd072777	-0.03299662
103	0xbc88af40	-0.016685128
104	0xbd908a4f	-0.0705763
105	0x3ca93d25	0.020659039
106	0xbd2b6641	-0.041845564
107	0xbd574ad0	-0.05256158
108	0xbadfabd1	-0.0017064755
109	0x3c26a647	0.01017148
110	0xbd0e769d	-0.034781087
111	0x3d24711e	0.04014694
112	0xbd86a4ea	-0.065744236
113	0x3d4690a0	0.04847777
114	0x3d313008	0.043258697
115	0xbd586cef	-0.052838262
116	0xbcaf0d0d	-0.021368528
117	0x3c149001	0.009067536
118	0x3bbd2281	0.0057719355
119	0xbc2b7717	-0.010465405
120	0x3c67b268	0.014141656
121	0xbb8dfa20	-0.0043327957
122	0xbd06b8db	-0.032891136
123	0x3ca4e875	0.020130375
124	0xbd7e9115	-0.06215008
125	0xbd614a1e	-0.055002324
126	0xbc3ce07f	-0.011528133
127	0xbcd1449c	-0.02554541
128	0xbc88dd44	-0.01670707
129	0xbd4a23ea	-0.049350657
130	0xbc216857	-0.009851537
131	0x3c8d4ecd	0.01724949
132	0xbd129617	-0.035787668
133	0xbc075924	-0.008260999
134	0x3d2a88a0	0.041634202
135	0xbc2facf0	-0.010722384
136	0x3a5b556f	0.00083669176
137	0xbc239e24	-0.009986434
138	0x3c166246	0.009178704
139	0x3d0ce243	0.034395467
140	0x3d6271d7	0.055284347
141	0x3d15831e	0.036501996
142	0x3d4f4489	0.05060247
143	0xbc1beabc	-0.009516414
144	0xbd7458bf	-0.059654947
145	0xbd00797d	-0.03136586
146	0x3d12cb2d	0.035838295
147	0xbc9d94cc	-0.019235991
148	0xbd26cc84	-0.040722385
149	0xbd8f0ff3	-0.06985464
150	0xbd7f2e65	-0.062300105
151	0xbd914c60	-0.070946455
152	0xbcd8ed0d	-0.026480222
153	0x3bbfb964	0.0058509577
154	0x3d405bc1	0.046962503
155	0xbd570a40	-0.05250001
156	0x3d2fccb8	0.042919844
157	0xbd5a3a09	-0.053278003
158	0xbb85942f	-0.0040765028
159	0xbc8ea575	-0.01741288
160	0x39480448	0.00019075081
161	0xbd01e751	-0.03171474
162	0xbd891fd6	-0.06695525
163	0xbd95e6a1	-0.073193796
164	0xbc371662	-0.01117477
165	0xbc7382e1	-0.014862747
166	0xbd1b83f2	-0.03796763
167	0xbc3aafef	-0.011394485
168	0xbd28904f	-0.04115325
169	0x3b3ce096	0.0028820387
170	0x3d8a325d	0.06747887
171	0xbccf8a94	-0.025334634
172	0x3d8da3e0	0.06916022
173	0x3d053449	0.032520566
174	0xbd0029d7	-0.0312899
175	0x3d08e5fb	0.03342245
176	0xbbfde132	-0.0077477926
177	0xbccb28c7	-0.024799718
178	0x3d55a6ab	0.0521609
179	0xbd44702c	-0.047958538
180	0x3c059f1b	0.0081556095
181	0xbc5c4db2	-0.013446258
182	0x3ccd55d4	0.02506534
183	0x3bff433f	0.007789999
184	0x3caba35b	0.020951917
185	0x3ca1fca1	0.019773783
186	0xbcc5e34a	-0.024156231
187	0xbc9d787d	-0.019222492
188	0xbd87ca16	-0.06630342
189	0x3d61820a	0.055055656
190	0x3d4d834e	0.05017405
191	0x3d110481	0.035404686
192	0xbd58e0a2	-0.0529486
193	0x3b934d08	0.004495267
194	0xbd4dc6ec	-0.050238535
195	0xbd21a620	-0.03946507
196	0xbd6c9874	-0.057762578
197	0x3c967c5c	0.018369846
198	0xbcc85e2d	-0.024458969
199	0xb998949d	-0.00029102425
200	0x3bf71b5a	0.0075411024
201	0x3d629699	0.055319402
202	0xbd141f17	-0.036162462
203	0xbd87c832	-0.06629981
204	0xbd3db425	-0.046314377
205	0x3d220521	0.039555673
206	0xbcd5ca4c	-0.02609744
207	0x3d3be21b	0.045869928
208	0x3cb0446b	0.021517
209	0xba7b8b91	-0.0009595687
210	0x3c30be9a	0.01078763
211	0xbbb9bc9a	-0.005668235
212	0x3c0ce740	0.008600056
213	0xbcaebad1	-0.021329315
214	0x3b981f89	0.004642431
215	0x3c26430c	0.010147821
216	0xbd1f6bec	-0.03892128
217	0xbd24e4bd	-0.040257204
218	0x3d4919eb	0.049096983
219	0xbd616219	-0.055025194
220	0xbb77b72b	-0.0037798386
221	0x3d6b0e17	0.057386484
222	0x3c97c575	0.018526772
223	0xbb3cf38e	-0.0028831693
224	0xbd506f47	-0.050887372
225	0x3d0a4020	0.03375256
226	0xbd282abd	-0.041056383
227	0xbc88e47f	-0.016710518
228	0xbc916d0e	-0.017752197
229	0xbbd10206	-0.006378415
230	0x3b7e7cd2	0.0038831723
231	0x3d49ecfc	0.04929827
232	0x3b0568ad	0.002035658
233	0x3d7bb6c1	0.061453585
234	0x3d1683a7	0.036746647
235	0xbcfe5afd	-0.031049246
236	0x3d2d7d4b	0.042355817
237	0xbc740dae	-0.01489584
238	0xbc99ff1c	-0.018798403
239	0x3cb52f11	0.02211717
240	0x3cb16f49	0.02165951
241	0x3d3f6295	0.046724875
242	0xbc07a63c	-0.008279379
243	0x3c716322	0.014733108
244	0x3d73c929	0.059518013
245	0xbdaa915c	-0.08328506
246	0x3d10c46c	0.035343572
247	0xbd6ba2ea	-0.057528414
248	0xba8e5ec3	-0.0010861981
249	0xbc9bfc24	-0.019041128
250	0xbd14432d	-0.036196876
251	0xbbd9a12f	-0.006641529
252	0x3ce02f99	0.027366446
253	0xbcee9730	-0.029124826
254	0xbd46ef48	-0.04856804
255	0xbccaba79	-0.02474712

rnn.weight_hh_l0 f4 [256, 256]
0	0x3d65af39	0.05607531
1	0x3d1b5bae	0.03792923
2	0x3d0c3f42	0.034240015
3	0xbc18ee18	-0.00933411
4	0x3d2971fe	0.041368477
5	0x3d1e7918	0.038689703
6	0x3d10f33e	0.035388224
7	0x3a11017e	0.00055315334
8	0x3c91fa59	0.01781957
9	0xbb515a4a	-0.0031944686
10	0xbd30094e	-0.042977624
11	0x3cbf9468	0.023386195
12	0xbd372d3a	-0.044720866
13	0x3d1480b4	0.036255553
14	0xbce5a1a3	-0.028031176
15	0xbc7d9cab	-0.015479247
16	0xbcb35f69	-0.021896081
17	0x3d68668e	0.05673843
18	0xbd21268a	-0.039343394
19	0x3d080e85	0.033216972
20	0x3d0976f3	0.033560704
21	0x3d4e7bb7	0.050410952
22	0x3ca71232	0.020394418
23	0x3d241330	0.04005736
24	0x3d6929b0	0.056924522
25	0x3c8ba8e6	0.01704831
26	0x3ce6ace8	0.02815862
27	0xbd462761	-0.0483774
28	0xbb96c8c5	-0.0046015703
29	0x3c59291e	0.013254432
30	0x3c77b42c	0.01511864
31	0xbc705a40	-0.014669955
32	0xbd6db455	-0.058033306
33	0xbc4f2b51	-0.012644605
34	0x3ce24bfb	0.027624121
35	0x3d7a05d8	0.06104073
36	0xbd487aa1	-0.048945073
37	0x3d2a1f4e	0.04153376
38	0xbd465da6	-0.048429154
39	0xbd596901	-0.053078655
40	0xbcf27dc4	-0.029600985
41	0xbba9fe75	-0.0051878043
42	0x3cd2af05	0.025718221
43	0xbd2734cd	-0.04082184
44	0x3d561b0b	0.052271884
45	0x3d76b0dd	0.060227264
46	0x3c1d8bc0	0.0096158385
47	0x3d688c98	0.056774706
48	0xbce917dd	-0.028453762
49	0xbca936c0	-0.02065599
50	0xbb0a4df9	-0.0021103604
51	0x3c5cef13	0.013484734
52	0xbd3a568e	-0.0454927
53	0xbd43d463	-0.04780997
54	0x3ce60e55	0.028083006
55	0x3c81bf14	0.015838183
56	0x3d8efd38	0.069818914
57	0xbcb949c2	-0.022618178
58	0x3cd16045	0.0255586
59	0xbca46976	-0.020069819
60	0x3d1cf90d	0.03832345
61	0x3babe91d	0.005246295
62	0x3d5dcd5a	0.054150917
63	0x3d169227	0.036760475
64	0x3d68a887	0.056801345
65	0x3ce2f292	0.027703557
66	0x3c3ef425	0.011654888
67	0x3d786daf	0.060651477
68	0xbcf19a0a	-0.029492397
69	0x3d6b4f8f	0.05744892
70	0x3d8a325b	0.06747886
71	0x3d7a4cf3	0.06110854
72	0xbcdd02f5	-0.02697895
73	0xbcf8cc49	-0.030370848
74	0x3be0b1ab	0.006857117
75	0x3cbe8c54	0.023260273
76	0x3d1575a2	0.036489137
77	0x3d00d2ce	0.03145104
78	0x3d6ab484	0.05730106
79	0xbbf9e36f	-0.007625989
80	0xbc4a01e3	-0.012329551
81	0x3cbb73f8	0.022882447
82	0x3cc5a7d0	0.02412787
83	0xbcc18914	-0.023624934
84	0x3c59ba67	0.013289071
85	0xbd17420f	-0.036928233
86	0xbc1cd2e3	-0.009571764
87	0xbc9ecd3e	-0.019384976
88	0x3d6564c8	0.056004316
89	0xbd59203a	-0.05300925
90	0xbd0757ee	-0.03304284
91	0xbd6584b9	-0.056034777
92	0x3cb00a86	0.021489393
93	0xbd31e94e	-0.043435387
94	0x3cc2aa09	0.02376272
95	0xbd352acb	-0.044230264
96	0xbd1672af	-0.036730465
97	0xbcd8fc1e	-0.026487406
98	0x3c84dad8	0.016217634
99	0x3d80e2e5	0.06293277
100	0x3d8761de	0.066104636
101	0x3a40be5e	0.00073525857
102	0xbd75fb09	-0.06005386
103	0xbc45fcf7	-0.012084237
104	0xbc9820bb	-0.018570295
105	0xbc2b8dde	-0.0104708355
106	0x3ced1d5a	0.02894466
107	0x3d1a5bb9	0.03768513
108	0x3d06c760	0.032904983
109	0x3cb2fc1b	0.021848729
110	0xbcb0068a	-0.021487493
111	0x3c03d792	0.008047001
112	0x3c81eab7	0.015858991
113	0xbcfdb74d	-0.030971194
114	0x3b85bcd5	0.0040813484
115	0xbc07559a	-0.008260155
116	0xbd5500b0	-0.05200261
117	0x3d3b136c	0.04567282
118	0xbba7acb7	-0.0051170248
119	0xbd3ac043	-0.04559351
120	0x3d5aadeb	0.053388517
121	0xbcf705bc	-0.030154102
122	0x3ccb9e4e	0.024855759
123	0x3d8a02e1	0.0673883
124	0x3c19f19a	0.009395981
125	0x3ca84d4e	0.020544674
126	0x3cf4bf1d	0.029876286
127	0x3d39495c	0.045235977
128	0xbc879701	-0.016551496
129	0xbd176e90	-0.036970675
130	0xbbddf206	-0.006773236
131	0x3d678119	0.0565196
132	0x3b8302ce	0.003998137
133	0x3d5633df	0.052295562
134	0x3c1db69d	0.009626058
135	0x3cd488b4	0.025944091
136	0x3c3a5fab	0.011375348
137	0x3c0afdf0	0.008483395
138	0xbd6cedfd	-0.05784415
139	0xbd529dda	-0.05142007
140	0x3c63e5db	0.013909782
141	0x3d00b1da	0.031419612
142	0x3d2351a6	0.039872788
143	0x3c20e5b1	0.009820388
144	0x3d09b8d9	0.03362355
145	0x3d03b529	0.03215519
146	0xbd4d41da	-0.05011163
147	0xbd65125a	-0.055925705
148	0xbd28b654	-0.041189507
149	0x3c04c9fe	0.008104799
150	0xbd0738b8	-0.033013076
151	0xbc99e3e4	-0.018785425
152	0x3b3082f5	0.0026933525
153	0x3cf1aa4e	0.029500153
154	0x3c844019	0.016143845
155	0x3d6dd8d9	0.05806813
156	0x3d81e403	0.06342318
157	0xbd0cbecc	-0.034361646
158	0x3bee6f2b	0.007276436
159	0x3c819127	0.015816284
160	0x3d7db5fa	0.061941124
161	0xbc47e1db	-0.012199844
162	0xbc9d8a1c	-0.019230895
163	0xbd00cb58	-0.031443924
164	0x3d5b51b5	0.05354472
165	0xbbbf69ae	-0.0058414554
166	0xbc8f2fe0	-0.017478883
167	0x3d50afb3	0.05094881
168	0x3d85dec5	0.065366305
169	0x3bceac51	0.006307163
170	0xbd355273	-0.044268083
171	0x3d63e702	0.055640228
172	0xbc3a576c	-0.011373382
173	0xbcbfdeb3	-0.023421621
174	0xbd0fec21	-0.0351373
175	0xbcf95322	-0.030435149
176	0xbd3790f4	-0.044815972
177	0xbce2b41d	-0.027673775
178	0xbd52b1cc	-0.05143909
179	0xbbab0723	-0.0052193566
180	0x3d009552	0.031392403
181	0xbd3b6fd4	-0.045760944
182	0x3a222578	0.0006185393
183	0xbcb076ba	-0.021540988
184	0x3d1e4138	0.038636416
185	0x3d737cc9	0.059445176
186	0xbbd84e49	-0.006601129
187	0xbccf91fa	-0.025338162
188	0xbd1f7579	-0.03893039
189	0xbcea6304	-0.028611667
190	0x3ccdb8cb	0.02511253
191	0x3c97123e	0.018441316
192	0x3d27ced4	0.04096873
193	0xbc1f5c46	-0.00972659
194	0x3d020c9e	0.031750314
195	0xbd65602b	-0.055999916
196	0x3cf798b8	0.03022419
197	0x3d84fb47	0.0649324
198	0xbd62f6af	-0.055411037
199	0xbceb74ae	-0.02874216
200	0x3d3cde0d	0.0461102
201	0xbbb2e1c3	-0.005459042
202	0xbcf9f75d	-0.03051346
203	0x3d429a36	0.04751035
204	0x3c501379	0.012699955
205	0x3c32fd9e	0.010924725
206	0xbc38b135	-0.011272718
207	0x3d64f657	0.05589899
208	0x3d20d4af	0.03926533
209	0x3c996f36	0.018729787
210	0x3c55d977	0.013052336
211	0x3d1a3935	0.037652213
212	0x3d1eeac6	0.038798116
213	0xbcae7427	-0.02129562
214	0xbbb2c3d6	-0.0054554744
215	0x3d029f3a	0.03189013
216	0xbcb35ada	-0.021893907
217	0x3d7d4e67	0.06184235
218	0xbd1ae3a7	-0.037814762
219	0x3d00653a	0.031346537
220	0xbd2df494	-0.042469576
221	0x3ce7a53d	0.028277034
222	0x3d4db2a6	0.0502192
223	0x3c57969b	0.013158466
224	0x3ab614df	0.0013891718
225	0x3d3f6e64	0.046736136
226	0xbd192250	-0.03738624
227	0xbd199184	-0.03749229
228	0xbd2e45c2	-0.042546995
229	0xbcfa63a1	-0.030565085
230	0x3bf87766	0.007582593
231	0xbcaefe18	-0.021361396
232	0x3c717789	0.014737972
233	0x3be269b9	0.006909576
234	0x3d6ad132	0.05732841
235	0xbca51d54	-0.020155586
236	0xbc257d0b	-0.010100613
237	0x3d431ba2	0.047633775
238	0xbc16971d	-0.009191302
239	0x3d83b95e	0.0643184
240	0xbc82da78	-0.015973315
241	0x3c30a88b	0.010782371
242	0xbc81ce7a	-0.015845526
243	0x3d24eab3	0.04026289
244	0x3ced198b	0.028942844
245	0xbd013216	-0.031541906
246	0x3d38b0c3	0.045090448
247	0x381e80f3	3.779023e-05
248	0xbc4134af	-0.011792346
249	0x3bce7260	0.0063002557
250	0x3d47b5d0	0.048757374
251	0x3d914e7a	0.07095046
252	0x3d0ae543	0.033910047
253	0x3c94a456	0.018144768
254	0x3d281a55	0.041040737
255	0xbc9691a6	-0.018379997

rnn.bias_ih_l0 f4 [256]
0	0xbd279087	-0.040909316
1	0x3cd23276	0.025658827
2	0x3c294eee	0.01033376
3	0xbc5b864f	-0.013398721
4	0xbc91ca73	-0.01779673
5	0xba45b77f	-0.00075422967
6	0xbd5f537d	-0.05452298
7	0x3c51060e	0.012757791
8	0x3d15b77e	0.036551945
9	0xbc33695f	-0.010950415
10	0xbcba72bf	-0.022759793
11	0x3d3c7996	0.04601439
12	0x3c25f4c0	0.010129154
13	0x3d664ad5	0.05622371
14	0x3d44ecde	0.048077457
15	0x3d7074b3	0.058705043
16	0xbd27c1d5	-0.040956337
17	0xbcb32fcc	-0.021873377
18	0xbcb34cff	-0.0218873
19	0xbd023038	-0.031784266
20	0xbd6534d2	-0.055958577
21	0xbd1edbce	-0.03878384
22	0x3d4a8944	0.049447313
23	0x3c5d1736	0.013494303
24	0x3d0e400a	0.03472904
25	0x3d31f145	0.043442983
26	0xbc8e5b2f	-0.017377464
27	0xbccb2b46	-0.024800908
28	0xbd429a90	-0.047510684
29	0xbd13213e	-0.035920374
30	0x3d4099c6	0.04702165
31	0xbcf2620b	-0.029587766
32	0xbd1d917d	-0.038468827
33	0x3cc8bf7a	0.024505366
34	0x3cf6ef53	0.030143416
35	0x3cd9cc16	0.026586574
36	0x3c8f16d2	0.017466936
37	0x3d160e12	0.036634512
38	0x3caeb7bd	0.021327848
39	0xbc9cd9e8	-0.019146875
40	0xbd70c706	-0.058783554
41	0xbc2491a1	-0.010044486
42	0x3d65d88c	0.05611472
43	0x3cf0a176	0.029373866
44	0xbc1a853a	-0.009431178
45	0x3c84b43d	0.016199226
46	0xbc64433b	-0.013932045
47	0x3d658531	0.056035224
48	0xbd1a2fca	-0.03764323
49	0x3c5faada	0.013651574
50	0x3d031bba	0.032008864
51	0xbd39bab3	-0.045344066
52	0x3d5fc1d4	0.05462821
53	0x3c87e045	0.016586432
54	0x3d365917	0.044518556
55	0xbd1e2772	-0.038611837
56	0x3c5ab6ad	0.013349217
57	0x3d28ff10	0.04125887
58	0x3c422dbd	0.011851725
59	0x3d418ef4	0.04725547
60	0x3d363b12	0.044489928
61	0x3cabd8bb	0.020977369
62	0x3c8f13e3	0.017465537
63	0x3a5d865c	0.0008450502
64	0xbd1cbe43	-0.038267385
65	0x3d72aac8	0.0592449
66	0x3d02b99e	0.0319153
67	0xbd028502	-0.031865127
68	0x3d3e8209	0.04651073
69	0x3d2d339b	0.042285543
70	0x3d791730	0.06081313
71	0x3be1fef3	0.0068968474
72	0x3d23a111	0.039948527
73	0x3b2dc1d3	0.0026513233
74	0xbd1d885a	-0.038460113
75	0x3d58e528	0.052952915
76	0x3aab6bdf	0.0013078413
77	0xbd3be33d	-0.04587101
78	0xbcbf933e	-0.02338564
79	0x3d59303c	0.053024516
80	0x3cfdcfd6	0.030982893
81	0xbd55c387	-0.052188423
82	0x3a579d64	0.0008225052
83	0xbd4c1c18	-0.04983148
84	0xbd2537d0	-0.04033643
85	0x3d7afd99	0.061277006
86	0xbd22b0c9	-0.039719377
87	0x3d516b1c	0.051127538
88	0x3c7db348	0.0154846385
89	0xbd1cdc42	-0.03829599
90	0xbd78e879	-0.06076858
91	0xbbea5049	-0.007150684
92	0x3b7b48e6	0.0038343011
93	0xbb91c8ce	-0.0044489866
94	0x3d0d4872	0.034492917
95	0x3d38a3d9	0.045078132
96	0x3c9c3f5f	0.019073186
97	0xbd1ac95e	-0.037789695
98	0xbcb6e9df	-0.022328315
99	0xbcdff7ec	-0.027339898
100	0xbbe23231	-0.006902956
101	0xbc4ffdcd	-0.012694788
102	0x3d8c4def	0.06850802
103	0x3d35219f	0.044221517
104	0x3d691cb1	0.056912128
105	0x3d16385e	0.03667485
106	0x3d6a09ba	0.057138182
107	0xbcf3f5f9	-0.029780375
108	0x3d488efc	0.048964486
109	0xbd252a4f	-0.04032355
110	0xbd03468d	-0.032049704
111	0xbca8313f	-0.020531295
112	0xbc0292eb	-0.007969598
113	0x3bdabbb0	0.006675206
114	0x3ceb671e	0.028735694
115	0x3d70d451	0.05879623
116	0xbd37aec5	-0.044844408
117	0x3cb8e0b3	0.022568082
118	0xbd29ce63	-0.04145659
119	0x3b1968b3	0.0023408353
120	0xbca6559c	-0.020304494
121	0xbc9d50fc	-0.019203655
122	0x3cba3a75	0.022732953
123	0x3d5f6b7e	0.054545872
124	0xbd0aca6d	-0.033884455
125	0x3d83a0c0	0.06427145
126	0x3d03cd6a	0.03217832
127	0x3c92bcf4	0.017912365
128	0x3cdb8f55	0.026801744
129	0x3d3d8872	0.046272703
130	0xbc64f0cc	-0.013973426
131	0xbc0c609a	-0.0085679535
132	0x3d07cc08	0.033153564
133	0xbc4720ba	-0.012153799
134	0xbd13ba8a	-0.03606657
135	0x3bf7890a	0.007554178
136	0xbd2a1f56	-0.04153379
137	0x3d833235	0.064060606
138	0x3c92ede5	0.017935703
139	0x3d8ee3fd	0.06977079
140	0xbd134dbc	-0.035962805
141	0x3b6c86dc	0.0036091125
142	0x3b27a5df	0.0025581045
143	0xbd013289	-0.031542335
144	0x3bf5774d	0.0074910284
145	0x3cc28c9f	0.023748694
146	0x3d6d012c	0.057862446
147	0x3b80a4e5	0.003925907
148	0x3cb10a9c	0.021611504
149	0x3d7c6501	0.061619762
150	0xbd1a7fe5	-0.037719626
151	0xbd07bf73	-0.033141565
152	0x3c29fa7f	0.010374664
153	0xbd79cd4a	-0.060986795
154	0xbcc87a95	-0.024472514
155	0xbd35d218	-0.044389814
156	0x3d876263	0.06610563
157	0xbcc875c7	-0.024470223
158	0x3ce1b475	0.027551869
159	0xbd82a041	-0.06378222
160	0x3c96a0f3	0.018387293
161	0xbd01e4df	-0.03171241
162	0xbcbf1b50	-0.023328453
163	0x3d525839	0.051353667
164	0xbd781a45	-0.060571928
165	0xbd5cfdf0	-0.05395311
166	0xbd501b39	-0.05080721
167	0x3d23c5b5	0.03998347
168	0xbcbad885	-0.022808323
169	0x3d5b510d	0.053544093
170	0xbd31fa6c	-0.04345171
171	0xbcb38d53	-0.021917975
172	0x3d2ee1f3	0.04269595
173	0xbd5b97dd	-0.053611625
174	0x3d232e58	0.03983912
175	0xbd2616b3	-0.04054899
176	0xbce39a1d	-0.027783448
177	0xbbaa776d	-0.005202225
178	0x3d6ac771	0.05731911
179	0x3d488bb5	0.04896136
180	0x3d17f111	0.037095133
181	0x3d0c65ad	0.034276653
182	0xbd1fb68c	-0.03899245
183	0xbd048b73	-0.03235955
184	0x3d64ce00	0.05586052
185	0xbb90008b	-0.004394596
186	0xbd02f828	-0.03197494
187	0x3d27d7ef	0.040977415
188	0xbcaed564	-0.021341987
189	0x3d66c1df	0.056337234
190	0x3d48fb73	0.049067926
191	0xbc9c23cd	-0.01906004
192	0xbcb66910	-0.022266895
193	0x3b8d0992	0.0043041194
194	0xbd2ca6ec	-0.042151377
195	0xbd306bdd	-0.043071616
196	0xba4ce935	-0.0007816733
197	0x3d1e5ab3	0.038660716
198	0xbd56f3b4	-0.052478507
199	0x3d6d5d8d	0.057950545
200	0x3d465ab3	0.04842634
201	0x3d10f1e9	0.035386954
202	0xbc568c42	-0.0130949635
203	0xbd221a64	-0.03957595
204	0xbc9c8e58	-0.019110844
205	0x3d162895	0.036659796
206	0xbcdf18af	-0.02723345
207	0x3cc2ef6f	0.023795811
208	0xbc2ee864	-0.010675523
209	0x3d58e167	0.052949335
210	0x3d32c9e6	0.043649577
211	0x3cacbc15	0.021085778
212	0x3d74eb36	0.059794627
213	0x3d6b968c	0.05751662
214	0xbb3d4c47	-0.0028884576
215	0xbc74e156	-0.014946302
216	0xbd1e5c1b	-0.038662057
217	0xbb1f4cde	-0.002430729
218	0xbc5d78ed	-0.0135176005
219	0x3c03f7ef	0.008054717
220	0xbd297b46	-0.04137733
221	0x3bc423d5	0.005985717
222	0xbcbd89f5	-0.023137072
223	0xbcaf70db	-0.021416118
224	0x3d60f089	0.054916892
225	0xbd5482d2	-0.051882572
226	0xbc8190f4	-0.01581619
227	0xbd4ec272	-0.050478406
228	0x3d5ed641	0.054403547
229	0x3d08479c	0.033271417
230	0x3a843a89	0.0010088246
231	0x3d0c251f	0.03421509
232	0xbd442c19	-0.047893617
233	0xbbe41703	-0.006960751
234	0x3c8b196d	0.016979897
235	0xbd4c62f2	-0.04989905
236	0xbc144c00	-0.009051323
237	0x3d87e505	0.06635479
238	0x3d28ac6d	0.041180063
239	0x3bd2cd67	0.0064331773
240	0x3d8a2f92	0.067473546
241	0xbcec335c	-0.028833084
242	0x3d3d2014	0.04617317
243	0xba75b54a	-0.00093730225
244	0x3cf9e0e6	0.030502748
245	0xbbb830a0	-0.005621031
246	0x3cdb874e	0.026797917
247	0xbceb8c53	-0.028753435
248	0x3d22d76f	0.039756235
249	0xbc4988a5	-0.012300645
250	0x3ceb8388	0.028749242
251	0x3cb29bea	0.021802861
252	0x3d19baae	0.037531547
253	0x3ccbe0fc	0.024887554
254	0xbcfa0d8f	-0.030524043
255	0xbceecf90	-0.029151708

rnn.bias_hh_l0 f4 [256]
0	0x3cdac401	0.02670479
1	0x3d09393e	0.033501856
2	0x3ca298e7	0.0198483
3	0x3d761383	0.0600772
4	0x3d33fc01	0.0439415
5	0xbaf39379	-0.0018583379
6	0xbc246e13	-0.010036009
7	0x3cf80f28	0.030280665
8	0xbca9fd93	-0.020750796
9	0xbd31494e	-0.0432828
10	0xbcb70a6e	-0.02234384
11	0xbb02a839	-0.0019936694
12	0xbcba5ce8	-0.02274938
13	0x3d0ba1a6	0.034089707
14	0xbd26911a	-0.040665723
15	0x3b92a12b	0.004474779
16	0xbd57f1a2	-0.052720673
17	0xbb6b576b	-0.003591026
18	0xbd1f16de	-0.038840167
19	0xbd387ce5	-0.045040984
20	0xbd1b23ac	-0.037875816
21	0xbba01767	-0.0048856023
22	0xbc3989cd	-0.011324358
23	0x3d036c3d	0.032085646
24	0x3d5589cb	0.052133363
25	0x3c8a954c	0.016916893
26	0xbca068a4	-0.019581147
27	0x3d5f3daa	0.054502167
28	0xbcfaa236	-0.030594926
29	0x3d702f86	0.058639072
30	0x3d34453e	0.044011347
31	0xbd110184	-0.035401836
32	0x3c8adeb0	0.016951889
33	0xbd5cbb06	-0.053889297
34	0xbd0c0df3	-0.03419299
35	0x3c95f62e	0.018305864
36	0x3d27f507	0.04100516
37	0xbd68bdf8	-0.056821793
38	0x3d67fa92	0.056635447
39	0xbd26b267	-0.04069748
40	0xbd86a909	-0.0657521
41	0x3d2f7ec2	0.042845495
42	0x3cd0c11d	0.025482709
43	0x3c3d5fe5	0.011558508
44	0x3d332aab	0.043741863
45	0x3c633002	0.013866426
46	0x3c6a5809	0.014303216
47	0x3ccf82ed	0.025330985
48	0x3c21d0d2	0.009876447
49	0x3d8a39a0	0.06749272
50	0x3d41d76a	0.047324575
51	0xbd486479	-0.048923943
52	0xbca2aefb	-0.019858828
53	0xbd3798f1	-0.04482359
54	0x3ccadb20	0.02476269
55	0x3d93da1a	0.07219334
56	0xbd60e600	-0.054906845
57	0xbd01231a	-0.031527616
58	0xbb6d5eeb	-0.0036219906
59	0xbd680248	-0.0566428
60	0xbc7f28ed	-0.015573722
61	0x3d15bffc	0.036560044
62	0x3d613c50	0.05498916
63	0xbc42498d	-0.011858356
64	0xbd2ce445	-0.042209882
65	0xbd5178f0	-0.051140726
66	0x3c733afb	0.014845605
67	0x3d6ad276	0.057329617
68	0x3d11de19	0.0356122
69	0x3c39a4e1	0.011330814
70	0x3d295b52	0.041346855
71	0xbd3bf28b	-0.045885604
72	0x3d6749f7	0.056467023
73	0xbc0ac96e	-0.008470876
74	0xbd2af576	-0.041737996
75	0x3d13b3bc	0.03606008
76	0xbd218c85	-0.03944065
77	0x3d6489e1	0.055795554
78	0xbcd2f183	-0.025749927
79	0xbcc146e8	-0.023593381
80	0x3d67f0a5	0.05662598
81	0x3d2d15d3	0.04225714
82	0x3ca1e7de	0.019763883
83	0x3c7dde23	0.015494856
84	0x3c7fed18	0.015620492
85	0xbd2a35f0	-0.041555345
86	0x3cfdeac7	0.03099574
87	0x3d796aad	0.06089275
88	0x3d478ac0	0.048716307
89	0xbd31616a	-0.043305792
90	0x3d1a48cb	0.037667077
91	0xbcb506b4	-0.022097923
92	0x3c001022	0.007816346
93	0x3a2d6303	0.000661418
94	0xbd29bad8	-0.041437954
95	0x3d30f7e0	0.043205142
96	0xbd205ab9	-0.03914902
97	0x3cb30657	0.021853609
98	0x3bcf427d	0.0063250647
99	0xbd647bb2	-0.055782028
100	0xbcdf9f43	-0.027297622
101	0x3d5a5151	0.053300206
102	0x3cc1e74a	0.023669858
103	0xbd4495b0	-0.047994316
104	0x3cf9516f	0.030434338
105	0xbd19a104	-0.037507072
106	0x3d7ac18e	0.061219744
107	0xbc82d827	-0.01597221
108	0x3cafb0b2	0.02144656
109	0xbd380382	-0.04492522
110	0xbd52469b	-0.051336866
111	0xbd4a2311	-0.04934985
112	0xbb6e1061	-0.003632568
113	0xbbbc6a3b	-0.0057499683
114	0x3c2c335f	0.010510295
115	0x3d270c5b	0.040783267
116	0x3cf09a86	0.029370558
117	0xb9876b9f	-0.0002582939
118	0xba969510	-0.0011488516
119	0xbb194c71	-0.002339151
120	0xbd2fbf4a	-0.042907037
121	0x3d727815	0.05919655
122	0xbccfb84e	-0.025356438
123	0x3c9bb727	0.019008232
124	0x3cf362af	0.029710142
125	0xbcbd4c59	-0.023107694
126	0x3d8a54e6	0.06754474
127	0x3d5fae2e	0.05460947
128	0x3d8b5c8c	0.06804761
129	0x3bb1ff57	0.00543205
130	0xbc369afe	-0.011145351
131	0xbcfed302	-0.031106476
132	0xbd4496bb	-0.04799531
133	0xbd5dc4d9	-0.054142807
134	0x3b446c35	0.0029971723
135	0xba69ed3b	-0.0008923595
136	0xbaa0232b	-0.0012217512
137	0x3d53d795	0.051719267
138	0xbc1f4e32	-0.009723233
139	0xbd08836f	-0.03332847
140	0x3d3aa6df	0.045569297
141	0xbcbf90e1	-0.023384513
142	0x3c5a292e	0.013315482
143	0x3c8a711b	0.016899636
144	0x3d1ff1c9	0.039048944
145	0x3d86ca5c	0.06581566
146	0xbaccc56d	-0.0015622802
147	0xbd0145eb	-0.03156082
148	0x3d367125	0.044541497
149	0xbcbc0bc2	-0.022954825
150	0xbd08e8f9	-0.033425305
151	0x3d2080ab	0.039185207
152	0xbd5c80f8	-0.05383393
153	0x3c915893	0.01774243
154	0x3d7fa128	0.06240955
155	0xbd19aaa3	-0.037516247
156	0xbd13f7cd	-0.036124993
157	0x3d8f7dbe	0.07006405
158	0xbd84496c	-0.064593166
159	0x3c890dc1	0.016730191
160	0x3caa6513	0.020800149
161	0x3d487783	0.0489421
162	0x3c948079	0.018127667
163	0xbcdcb80b	-0.026943227
164	0xbd733e46	-0.05938556
165	0x3d24544b	0.04011945
166	0x3a5e90c3	0.0008490199
167	0x3ba60f78	0.005067762
168	0x3c936841	0.017994048
169	0x3d720b65	0.059092898
170	0x3c410051	0.011779861
171	0x3d81006b	0.06298908
172	0x3c9da9f3	0.019246077
173	0xbca29600	-0.019846916
174	0x3c924be7	0.017858459
175	0xbc8714e4	-0.016489454
176	0xbaf1d5fc	-0.0018450613
177	0x39a7f129	0.000320324
178	0xbad36966	-0.0016129434
179	0x3bfdcb6a	0.007745196
180	0xbd0253e1	-0.031818274
181	0xbd42606a	-0.04745523
182	0xbc94a22e	-0.01814374
183	0x3d3cf75d	0.04613434
184	0xbd0588f9	-0.03260133
185	0xbd252c3f	-0.0403254
186	0x3b690728	0.0035557244
187	0x3d412ca1	0.047161702
188	0x3d6a76a4	0.05724205
189	0x3bf8bf9c	0.007591201
190	0x3d1bb30f	0.03801256
191	0xbb734634	-0.0037120702
192	0xbbb9b5e4	-0.005667435
193	0xbb55b2f8	-0.0032607894
194	0x3d1ab007	0.03776553
195	0x3c979799	0.018504905
196	0xbc03a4bd	-0.008034882
197	0x3d86293b	0.06550833
198	0xbbdd7bdb	-0.0067591495
199	0x3d0e9f01	0.034819607
200	0x3d0d4324	0.03448786
201	0xbc6e5b33	-0.014548111
202	0x3d224f54	0.039626434
203	0xbc24cfd0	-0.010059312
204	0xbd55eb52	-0.052226372
205	0xbd12fab6	-0.035883628
206	0x3d0b4e2e	0.034010105
207	0x3d13cd0b	0.036084216
208	0xbc951da4	-0.01820261
209	0x3b4dd6a9	0.0031408465
210	0x3d61e9b7	0.05515453
211	0xbc2f37e4	-0.010694478
212	0x3cd7af35	0.026328662
213	0xbc2b4521	-0.010453493
214	0xbd1509a2	-0.03638614
215	0xbcbaef2d	-0.022819126
216	0x3cff6dda	0.031180311
217	0x3cd5d19f	0.026100932
218	0x3b8a3e15	0.0042188265
219	0xbadfabe2	-0.0017064775
220	0x3cb6f086	0.022331487
221	0x3d666499	0.05624828
222	0xbc213bb7	-0.009840897
223	0xbcf68ff4	-0.03009794
224	0xbd31b032	-0.043380924
225	0x3c4feaf8	0.012690298
226	0x3d3a16f2	0.04543204
227	0x3cafe362	0.02147073
228	0xbd5bb8fc	-0.05364321
229	0xbce0bbdc	-0.027433328
230	0xbd31b37b	-0.043384057
231	0x3ca8900d	0.020576501
232	0x3d4fab94	0.05070074
233	0x3d297ac9	0.041376863
234	0xbbfd4050	-0.007728614
235	0x3c97bcac	0.018522583
236	0x3b60aba2	0.0034281989
237	0xbd44d710	-0.048056662
238	0x3d5637ee	0.052299432
239	0x3d246f1c	0.040145025
240	0xbd4aa738	-0.04947588
241	0x3d69803f	0.05700707
242	0x3d2e36d7	0.042532768
243	0xbd34c305	-0.044131298
244	0x3d512774	0.051063016
245	0xbd3c5a82	-0.045984752
246	0x3d31050f	0.043217715
247	0x3ba57dad	0.005050382
248	0xbc4d9982	-0.012548806
249	0x3d049260	0.032366157
250	0x3d25f711	0.040518824
251	0xbd494b4c	-0.049144074
252	0x3d346ac3	0.04404713
253	0xbca3407a	-0.019928206
254	0x3d769454	0.06020005
255	0x3d73abcb	0.059490006

out.weight f4 [2, 256]
0	0x3d90e6ee	0.07075296
1	0x3d210613	0.039312433
2	0xbca3b024	-0.019981451
3	0xbcbfa740	-0.02339518
4	0xbcedf536	-0.02904759
5	0xbd3166b6	-0.043310843
6	0xbd6a1173	-0.057145547
7	0xbd7fb47a	-0.062427975
8	0x3c612d5a	0.013743723
9	0xbd3d38d2	-0.046196766
10	0xbc1a6e4e	-0.009425713
11	0x3d066943	0.03281523
12	0x3d5eee54	0.054426506
13	0x3d77673b	0.060401183
14	0x3d1d3afd	0.038386334
15	0xbd433a72	-0.04766316
16	0x3d19b8f6	0.037529908
17	0x3d205aef	0.03914922
18	0xbd2c6f46	-0.042098306
19	0x3cfe4847	0.031040324
20	0x3c8a2338	0.016862497
21	0x3d3ea56a	0.04654447
22	0xbd3ab3f9	-0.04558179
23	0x3d0b2f2a	0.033980526
24	0xbd1c818b	-0.03820948
25	0x3bb3f2a4	0.0054915715
26	0x3d63b92b	0.05559651
27	0xbc6ed26b	-0.014576535
28	0xbd367d37	-0.044553008
29	0xbc0264ff	-0.00795865
30	0x3d32ac25	0.0436212
31	0x3c8dfc4e	0.017332222
32	0xbd2145e4	-0.039373294
33	0x3d07cf24	0.03315653
34	0xbd8f998a	-0.07011707
35	0x3d3caa1f	0.046060678
36	0x3d556593	0.05209882
37	0x3cc41a68	0.023938373
38	0xbd5ef04f	-0.054428395
39	0x3d14088a	0.036140956
40	0x3b071423	0.0020611368
41	0xbd817655	-0.06321398
42	0xbd31def7	-0.043425526
43	0x3d219a80	0.039453983
44	0xbd1285b9	-0.03577206
45	0xbd496261	-0.049166087
46	0x3d0ab48f	0.0338636
47	0x3cf533e6	0.029931974
48	0xbc969457	-0.01838128
49	0xbd58b9dd	-0.052911628
50	0xbd6f0807	-0.058357265
51	0x3d91e7a8	0.07124263
52	0xbd3f1ec1	-0.04666019
53	0xbcd30184	-0.025757559
54	0x3d18c160	0.03729379
55	0xbd653e8b	-0.05596785
56	0x3d596953	0.05307896
57	0xbd2ad7a5	-0.04170956
58	0xbb930033	-0.0044861077
59	0x3c7025c5	0.014657442
60	0x3d453fc0	0.0481565
61	0x3c2bfb60	0.010496944
62	0x3d95599a	0.07292481
63	0x3c6ea0eb	0.014564733
64	0xbd08f609	-0.033437762
65	0xbd4122cf	-0.047152337
66	0xbc17a1ad	-0.009254855
67	0xbd607ee5	-0.054808516
68	0xbc995c08	-0.018720642
69	0x3ccb84ca	0.024843592
70	0xbc97095d	-0.018437082
71	0xbcb8ca5e	-0.022557434
72	0xbd2b39b3	-0.041803073
73	0xbd2212a7	-0.03956857
74	0xbc81a2a4	-0.015824623
75	0xbd9548f5	-0.07289306
76	0xbd507479	-0.050892327
77	0x3d0cbe9a	0.03436146
78	0x3d40ce0a	0.047071494
79	0xbd6eca27	-0.058298256
80	0x3cd4e32b	0.025987228
81	0xbbf15801	-0.007365227
82	0x3d16c13d	0.03680538
83	0xbc833680	-0.016017199
84	0x3d039c64	0.032131568
85	0xbc82f079	-0.015983807
86	0x3d53c0eb	0.051697653
87	0xbc035e23	-0.008018049
88	0xbc832613	-0.016009366
89	0xbca882ce	-0.020570185
90	0xbb81fb44	-0.003966721
91	0x3d3f9596	0.046773516
92	0xbd3c2abe	-0.0459392
93	0xbd6fcd8b	-0.05854563
94	0xbd55c982	-0.052194126
95	0xbc5fb976	-0.013655057
96	0x3d096b1a	0.033549406
97	0x3d4399eb	0.04775421
98	0x3bb2cc20	0.0054564625
99	0x3d005b05	0.031336803
100	0x3d80ab48	0.06282669
101	0xbd223c51	-0.039608303
102	0x3c158a66	0.009127235
103	0x3c9a8d57	0.018866224
104	0xbd253a79	-0.040338967
105	0xbd4a7430	-0.04942721
106	0x3cefa414	0.029253043
107	0xbcf551cf	-0.029946236
108	0xbc9f2b6c	-0.019429885
109	0xbced20c7	-0.028946294
110	0xbba897dc	-0.005145056
111	0xbd00a1cc	-0.0314043
112	0xbbebebf9	-0.007199761
113	0xbd628c9a	-0.05530987
114	0x3d332eec	0.04374592
115	0xbd288876	-0.041145764
116	0xbd240216	-0.04004105
117	0x3cb07954	0.021542229
118	0x3d4a114f	0.049332913
119	0x3cedfb04	0.029050358
120	0xbcfb286a	-0.03065892
121	0xbb0b1401	-0.002122164
122	0xbd4a3963	-0.049371134
123	0xbce51c4f	-0.0279676
124	0x3b6b603a	0.003591551
125	0xbd84e1c1	-0.06488372
126	0xbcb5d9fb	-0.022198668
127	0x3ceaea2f	0.02867612
128	0xbc0fb849	-0.008771964
129	0xbd68674a	-0.05673913
130	0xbd92f77d	-0.07176111
131	0x3d20c5da	0.039251186
132	0xbc964f16	-0.018348258
133	0x3c884a16	0.01663689
134	0x3d8cfad6	0.06883781
135	0x3cebb397	0.028772159
136	0x3d3e6078	0.04647872
137	0xbd168ddd	-0.036756385
138	0xbd223ab4	-0.039606765
139	0xbd8ed61c	-0.06974432
140	0x3c20aeb1	0.009807275
141	0x3d2a1df5	0.041532476
142	0x3b4c19c9	0.00311433
143	0xbcb38736	-0.02191506
144	0x3c51184a	0.012762139
145	0xbcd638ad	-0.026150072
146	0xbd871b24	-0.065969735
147	0xbb0054c3	-0.0019581772
148	0x3d03edc1	0.03220916
149	0xbc78ebee	-0.015192969
150	0x3bef459a	0.0073019983
151	0x3c6e1e94	0.014533658
152	0xbd620ea5	-0.055189747
153	0xbd3c92bc	-0.046038374
154	0xbd39f03a	-0.045395114
155	0x3d19cfa9	0.037551556
156	0xbd080f61	-0.03321779
157	0xbd9477cc	-0.07249412
158	0xbcc25d41	-0.023726108
159	0x390b8021	0.00013303805
160	0x3c836106	0.016037475
161	0x3d4f2df0	0.05058092
162	0xbd43021b	-0.04760943
163	0x3d80f0f9	0.06295962
164	0x3d297a89	0.041376624
165	0x3cdd2d36	0.026999097
166	0x3d7670bc	0.060166106
167	0x3ca8c6e4	0.020602651
168	0x3cf98d09	0.030462759
169	0xbb2ac5a8	-0.0026057754
170	0x3d2b967b	0.041891556
171	0xbd05d6dd	-0.032675613
172	0x3d30bdaf	0.043149646
173	0x3c54e849	0.012994834
174	0x3d8fae76	0.07015698
175	0x39c2071d	0.00037007863
176	0xbd5f4e15	-0.054517824
177	0x3d83b22e	0.064304695
178	0xbd0e8d10	-0.034802496
179	0x3d595c71	0.053066675
180	0xbd90096a	-0.070330456
181	0xbd3ecaa4	-0.046579972
182	0xbd8cb733	-0.0687088
183	0xbd068ad9	-0.03284726
184	0x3b458d3a	0.0030143992
185	0xbc873459	-0.016504453
186	0xbd543b60	-0.051814437
187	0x3c794163	0.015213343
188	0x3d41c143	0.04730345
189	0x3c0facc1	0.008769215
190	0x3bca0cb8	0.006166067
191	0xbd7c7fbb	-0.06164525
192	0x3c81d746	0.01584972
193	0xbcdd6f04	-0.027030475
194	0x3d605590	0.0547691
195	0x3d5e0082	0.054199703
196	0xbcb4058c	-0.021975301
197	0xbd88c25f	-0.06677698
198	0xbc338206	-0.010956293
199	0xbd0f4ed8	-0.0349873
200	0x3ccf8fc8	0.025337115
201	0x3cbfa872	0.02339575
202	0x3cb6ba24	0.022305556
203	0x3d25fcae	0.040524177
204	0x3bf46a58	0.007458966
205	0x3c502e10	0.012706295
206	0xbcf530f4	-0.02993057
207	0x3c125565	0.008931492
208	0xbd3d06d6	-0.046149097
209	0x3af28d53	0.0018505253
210	0x3bf49bed	0.007464877
211	0xbd0a447a	-0.03375671
212	0xbd992165	-0.074770726
213	0xbd62f3b0	-0.05540818
214	0x3b8f265f	0.004368588
215	0xbd6bcea3	-0.05757011
216	0x3d87d6a0	0.06632733
217	0xbd1a706e	-0.037704878
218	0xbd89eff4	-0.067352206
219	0xbd4cfd6e	-0.050046377
220	0x3ca9aff3	0.020713782
221	0xbc002413	-0.007821101
222	0xbbeca25f	-0.0072215046
223	0x3cbbdd6e	0.022932734
224	0xbd2de8b0	-0.042458236
225	0x3d801f66	0.06255989
226	0x3c0481ee	0.008087618
227	0x3cc73a01	0.02431965
228	0xbd5b4ba0	-0.05353892
229	0x3d83ebec	0.06441483
230	0x3bd7ae0e	0.006582028
231	0x3d759007	0.05995181
232	0x3d0b400e	0.033996634
233	0x3c2c4143	0.0105136065
234	0xbc0d1e95	-0.008613248
235	0x3cf42ba4	0.029805966
236	0xbd4a98cf	-0.049462136
237	0xbc602a4f	-0.013681962
238	0x3c9a48a5	0.018833468
239	0x3d196cf3	0.037457418
240	0x3cfae870	0.030628413
241	0xbcedd6ad	-0.02903303
242	0xba59614d	-0.0008292392
243	0x3ccdcff1	0.025123568
244	0xbbfbdd73	-0.007686311
245	0xbbc8f51c	-0.006132735
246	0x3d7636d5	0.060110886
247	0xbd7c0ac0	-0.06153369
248	0xbcc26091	-0.023727687
249	0x3d4cf607	0.050039317
250	0xb90b7751	-0.00013300522
251	0xbd5a1738	-0.0532448
252	0x3d19223f	0.037386175
253	0xbccbfd80	-0.024901152
254	0xbd2534cc	-0.040333554
255	0x3d5f7554	0.054555252

out.bias f4 [2]
0	0xbcf3d7c0	-0.029765964
1	0x3c727989	0.014799484
